#map = affine_map<()[s0] -> (s0 + 1)>
#map1 = affine_map<()[s0] -> (s0 ceildiv 64)>
#map2 = affine_map<()[s0] -> (s0 * 8 - (s0 floordiv 10) * 80)>
#map3 = affine_map<()[s0] -> ((s0 floordiv 10) mod 64)>
#map4 = affine_map<()[s0] -> (s0 * 8 - ((s0 + 4) floordiv 10) * 80 + 32)>
#map5 = affine_map<()[s0] -> (((s0 + 64) floordiv 10) mod 64)>
#map6 = affine_map<()[s0] -> (s0 * 8 - ((s0 + 8) floordiv 10) * 80 + 64)>
#map7 = affine_map<()[s0] -> (((s0 + 128) floordiv 10) mod 64)>
#map8 = affine_map<()[s0] -> (s0 * 8 - ((s0 + 2) floordiv 10) * 80 + 16)>
#map9 = affine_map<()[s0] -> (((s0 + 192) floordiv 10) mod 64)>
#map10 = affine_map<()[s0] -> (s0 * 8 - ((s0 + 6) floordiv 10) * 80 + 48)>
#map11 = affine_map<()[s0] -> (((s0 + 256) floordiv 10) mod 64)>
#map12 = affine_map<()[s0] -> (s0 floordiv 10 - ((s0 floordiv 10 + 32) floordiv 64) * 64 + 32)>
#map13 = affine_map<()[s0] -> (((s0 + 384) floordiv 10) mod 64)>
#map14 = affine_map<()[s0] -> (((s0 + 448) floordiv 10) mod 64)>
#map15 = affine_map<()[s0] -> (((s0 + 512) floordiv 10) mod 64)>
#map16 = affine_map<()[s0] -> (((s0 + 576) floordiv 10) mod 64)>
#map17 = affine_map<()[s0] -> (s0 mod 64)>
#map18 = affine_map<()[s0, s1, s2] -> (s0 + s1 + s2)>
#map19 = affine_map<()[s0, s1, s2, s3] -> (s0 + s1 * 64 + s2 + s3 - (s0 floordiv 64) * 64)>
#map20 = affine_map<()[s0, s1, s2, s3] -> (s1 * 64 + s2 + s3 + (s0 floordiv 10) mod 64)>
#map21 = affine_map<()[s0, s1, s2, s3] -> (s1 * 64 + s2 + s3 + ((s0 + 576) floordiv 10) mod 64)>
#map22 = affine_map<()[s0, s1, s2, s3] -> (s1 * 64 + s2 + s3 + ((s0 + 512) floordiv 10) mod 64)>
#map23 = affine_map<()[s0, s1, s2, s3] -> (s1 * 64 + s2 + s3 + ((s0 + 448) floordiv 10) mod 64)>
#map24 = affine_map<()[s0, s1, s2, s3] -> (s1 * 64 + s2 + s3 + ((s0 + 384) floordiv 10) mod 64)>
#map25 = affine_map<()[s0, s1, s2, s3] -> (s1 * 64 + s2 + s3 + s0 floordiv 10 - ((s0 floordiv 10 + 32) floordiv 64) * 64 + 32)>
#map26 = affine_map<()[s0, s1, s2, s3] -> (s1 * 64 + s2 + s3 + ((s0 + 256) floordiv 10) mod 64)>
#map27 = affine_map<()[s0, s1, s2, s3] -> (s1 * 64 + s2 + s3 + ((s0 + 192) floordiv 10) mod 64)>
#map28 = affine_map<()[s0, s1, s2, s3] -> (s1 * 64 + s2 + s3 + ((s0 + 128) floordiv 10) mod 64)>
#map29 = affine_map<()[s0, s1, s2, s3] -> (s1 * 64 + s2 + s3 + ((s0 + 64) floordiv 10) mod 64)>
#translation = #iree_codegen.translation_info<pipeline = None workgroup_size = [64, 1, 1] subgroup_size = 64>
module attributes {transform.with_named_sequence} {
  stream.executable private @phase_0 {
    stream.executable.export public @phase_0 workgroups(%arg0: index, %arg1: index, %arg2: index) -> (index, index, index) {
      %c128 = arith.constant 128 : index
      %c8 = arith.constant 8 : index
      stream.return %arg2, %c128, %c8 : index, index, index
    }
    builtin.module {
      func.func @phase_0(%arg0: !stream.binding, %arg1: !stream.binding, %arg2: !stream.binding, %arg3: !stream.binding, %arg4: !stream.binding, %arg5: !stream.binding, %arg6: !stream.binding, %arg7: index, %arg8: index, %arg9: index) attributes {translation_info = #translation} {
        %c79 = arith.constant 79 : index
        %c78 = arith.constant 78 : index
        %c77 = arith.constant 77 : index
        %c75 = arith.constant 75 : index
        %c74 = arith.constant 74 : index
        %c73 = arith.constant 73 : index
        %c71 = arith.constant 71 : index
        %c70 = arith.constant 70 : index
        %c69 = arith.constant 69 : index
        %c67 = arith.constant 67 : index
        %c66 = arith.constant 66 : index
        %c65 = arith.constant 65 : index
        %c63 = arith.constant 63 : index
        %c62 = arith.constant 62 : index
        %c61 = arith.constant 61 : index
        %c59 = arith.constant 59 : index
        %c58 = arith.constant 58 : index
        %c57 = arith.constant 57 : index
        %c55 = arith.constant 55 : index
        %c54 = arith.constant 54 : index
        %c53 = arith.constant 53 : index
        %c51 = arith.constant 51 : index
        %c50 = arith.constant 50 : index
        %c49 = arith.constant 49 : index
        %c47 = arith.constant 47 : index
        %c46 = arith.constant 46 : index
        %c45 = arith.constant 45 : index
        %c43 = arith.constant 43 : index
        %c42 = arith.constant 42 : index
        %c41 = arith.constant 41 : index
        %c39 = arith.constant 39 : index
        %c38 = arith.constant 38 : index
        %c37 = arith.constant 37 : index
        %c35 = arith.constant 35 : index
        %c34 = arith.constant 34 : index
        %c33 = arith.constant 33 : index
        %c31 = arith.constant 31 : index
        %c30 = arith.constant 30 : index
        %c29 = arith.constant 29 : index
        %c27 = arith.constant 27 : index
        %c26 = arith.constant 26 : index
        %c25 = arith.constant 25 : index
        %c23 = arith.constant 23 : index
        %c22 = arith.constant 22 : index
        %c21 = arith.constant 21 : index
        %c19 = arith.constant 19 : index
        %c18 = arith.constant 18 : index
        %c17 = arith.constant 17 : index
        %c15 = arith.constant 15 : index
        %c14 = arith.constant 14 : index
        %c13 = arith.constant 13 : index
        %c11 = arith.constant 11 : index
        %c10 = arith.constant 10 : index
        %c9 = arith.constant 9 : index
        %c7 = arith.constant 7 : index
        %c6 = arith.constant 6 : index
        %c5 = arith.constant 5 : index
        %c3 = arith.constant 3 : index
        %c2 = arith.constant 2 : index
        %cst = arith.constant dense<0.000000e+00> : vector<1xf16>
        %cst_0 = arith.constant dense<0.000000e+00> : vector<8xf16>
        %cst_1 = arith.constant dense<0> : vector<1xi32>
        %cst_2 = arith.constant dense<8> : vector<1xindex>
        %cst_3 = arith.constant dense<1.000000e+00> : vector<1xf32>
        %c32_i32 = arith.constant 32 : i32
        %c16_i32 = arith.constant 16 : i32
        %c8_i32 = arith.constant 8 : i32
        %c4_i32 = arith.constant 4 : i32
        %c2_i32 = arith.constant 2 : i32
        %c64_i32 = arith.constant 64 : i32
        %c1_i32 = arith.constant 1 : i32
        %c76 = arith.constant 76 : index
        %c72 = arith.constant 72 : index
        %c68 = arith.constant 68 : index
        %c64 = arith.constant 64 : index
        %c60 = arith.constant 60 : index
        %c56 = arith.constant 56 : index
        %c52 = arith.constant 52 : index
        %c48 = arith.constant 48 : index
        %c44 = arith.constant 44 : index
        %c40 = arith.constant 40 : index
        %c36 = arith.constant 36 : index
        %c32 = arith.constant 32 : index
        %c28 = arith.constant 28 : index
        %c24 = arith.constant 24 : index
        %c20 = arith.constant 20 : index
        %c16 = arith.constant 16 : index
        %c12 = arith.constant 12 : index
        %c4 = arith.constant 4 : index
        %c10880 = arith.constant 10880 : index
        %c8 = arith.constant 8 : index
        %c1 = arith.constant 1 : index
        %c0 = arith.constant 0 : index
        %cst_4 = arith.constant dense<0.000000e+00> : vector<1xf32>
        %cst_5 = arith.constant dense<-1.000000e+06> : vector<1xf32>
        %cst_6 = arith.constant dense<0.161298215> : vector<1xf32>
        %block_id_x = gpu.block_id  x
        %block_id_y = gpu.block_id  y upper_bound 128
        %block_id_z = gpu.block_id  z upper_bound 8
        %thread_id_x = gpu.thread_id  x upper_bound 64
        %alloc = memref.alloc() : memref<21632xi8, #gpu.address_space<workgroup>>
        %0 = stream.binding.subspan %arg3[%c0] : !stream.binding -> memref<?xi32, strided<[1], offset: ?>>{%arg9}
        %1 = vector.load %0[%block_id_x] : memref<?xi32, strided<[1], offset: ?>>, vector<1xi32>
        %2 = affine.apply #map()[%block_id_x]
        %3 = vector.load %0[%2] : memref<?xi32, strided<[1], offset: ?>>, vector<1xi32>
        %4 = vector.extract %3[0] : i32 from vector<1xi32>
        %5 = arith.index_cast %4 : i32 to index
        %6 = arith.subi %3, %1 : vector<1xi32>
        %7 = vector.extract %1[0] : i32 from vector<1xi32>
        %8 = arith.index_cast %7 : i32 to index
        %9 = arith.index_cast %6 : vector<1xi32> to vector<1xindex>
        %10 = arith.ceildivsi %9, %cst_2 : vector<1xindex>
        %11 = arith.index_cast %10 : vector<1xindex> to vector<1xi32>
        %12 = vector.splat %block_id_z : vector<1xindex>
        %13 = arith.index_cast %12 : vector<1xindex> to vector<1xi32>
        %14 = arith.muli %13, %11 : vector<1xi32>
        %15 = vector.extract %14[0] : i32 from vector<1xi32>
        %16 = arith.index_cast %15 : i32 to index
        %17 = vector.extract %11[0] : i32 from vector<1xi32>
        %18 = arith.index_cast %17 : i32 to index
        %19 = vector.extract %6[0] : i32 from vector<1xi32>
        %20 = arith.index_cast %19 : i32 to index
        %21 = arith.subi %20, %16 : index
        %22 = arith.maxsi %21, %c0 : index
        %23 = arith.minsi %22, %18 : index
        %view = memref.view %alloc[%c0][] : memref<21632xi8, #gpu.address_space<workgroup>> to memref<1x1x80x68xf16, #gpu.address_space<workgroup>>
        %view_7 = memref.view %alloc[%c10880][] : memref<21632xi8, #gpu.address_space<workgroup>> to memref<1x1x64x84xf16, #gpu.address_space<workgroup>>
        %24 = stream.binding.subspan %arg0[%c0] : !stream.binding -> memref<?x128x80xf16, strided<[10240, 80, 1], offset: ?>>{%arg9}
        %25 = vector.load %24[%block_id_x, %block_id_y, %c0] : memref<?x128x80xf16, strided<[10240, 80, 1], offset: ?>>, vector<4xf16>
        %26 = vector.load %24[%block_id_x, %block_id_y, %c4] : memref<?x128x80xf16, strided<[10240, 80, 1], offset: ?>>, vector<4xf16>
        %27 = vector.load %24[%block_id_x, %block_id_y, %c8] : memref<?x128x80xf16, strided<[10240, 80, 1], offset: ?>>, vector<4xf16>
        %28 = vector.load %24[%block_id_x, %block_id_y, %c12] : memref<?x128x80xf16, strided<[10240, 80, 1], offset: ?>>, vector<4xf16>
        %29 = vector.load %24[%block_id_x, %block_id_y, %c16] : memref<?x128x80xf16, strided<[10240, 80, 1], offset: ?>>, vector<4xf16>
        %30 = vector.load %24[%block_id_x, %block_id_y, %c20] : memref<?x128x80xf16, strided<[10240, 80, 1], offset: ?>>, vector<4xf16>
        %31 = vector.load %24[%block_id_x, %block_id_y, %c24] : memref<?x128x80xf16, strided<[10240, 80, 1], offset: ?>>, vector<4xf16>
        %32 = vector.load %24[%block_id_x, %block_id_y, %c28] : memref<?x128x80xf16, strided<[10240, 80, 1], offset: ?>>, vector<4xf16>
        %33 = vector.load %24[%block_id_x, %block_id_y, %c32] : memref<?x128x80xf16, strided<[10240, 80, 1], offset: ?>>, vector<4xf16>
        %34 = vector.load %24[%block_id_x, %block_id_y, %c36] : memref<?x128x80xf16, strided<[10240, 80, 1], offset: ?>>, vector<4xf16>
        %35 = vector.load %24[%block_id_x, %block_id_y, %c40] : memref<?x128x80xf16, strided<[10240, 80, 1], offset: ?>>, vector<4xf16>
        %36 = vector.load %24[%block_id_x, %block_id_y, %c44] : memref<?x128x80xf16, strided<[10240, 80, 1], offset: ?>>, vector<4xf16>
        %37 = vector.load %24[%block_id_x, %block_id_y, %c48] : memref<?x128x80xf16, strided<[10240, 80, 1], offset: ?>>, vector<4xf16>
        %38 = vector.load %24[%block_id_x, %block_id_y, %c52] : memref<?x128x80xf16, strided<[10240, 80, 1], offset: ?>>, vector<4xf16>
        %39 = vector.load %24[%block_id_x, %block_id_y, %c56] : memref<?x128x80xf16, strided<[10240, 80, 1], offset: ?>>, vector<4xf16>
        %40 = vector.load %24[%block_id_x, %block_id_y, %c60] : memref<?x128x80xf16, strided<[10240, 80, 1], offset: ?>>, vector<4xf16>
        %41 = vector.load %24[%block_id_x, %block_id_y, %c64] : memref<?x128x80xf16, strided<[10240, 80, 1], offset: ?>>, vector<4xf16>
        %42 = vector.load %24[%block_id_x, %block_id_y, %c68] : memref<?x128x80xf16, strided<[10240, 80, 1], offset: ?>>, vector<4xf16>
        %43 = vector.load %24[%block_id_x, %block_id_y, %c72] : memref<?x128x80xf16, strided<[10240, 80, 1], offset: ?>>, vector<4xf16>
        %44 = vector.load %24[%block_id_x, %block_id_y, %c76] : memref<?x128x80xf16, strided<[10240, 80, 1], offset: ?>>, vector<4xf16>
        %45 = affine.apply #map1()[%23]
        %46 = stream.binding.subspan %arg2[%c0] : !stream.binding -> memref<?x128x80xf16, strided<[10240, 80, 1], offset: ?>>{%arg8}
        %47 = stream.binding.subspan %arg1[%c0] : !stream.binding -> memref<?x128x80xf16, strided<[10240, 80, 1], offset: ?>>{%arg8}
        %48 = stream.binding.subspan %arg4[%c0] : !stream.binding -> memref<?xi32, strided<[1], offset: ?>>{%arg7}
        %49 = affine.apply #map2()[%thread_id_x]
        %50 = affine.apply #map3()[%thread_id_x]
        %51 = affine.apply #map4()[%thread_id_x]
        %52 = affine.apply #map5()[%thread_id_x]
        %53 = affine.apply #map6()[%thread_id_x]
        %54 = affine.apply #map7()[%thread_id_x]
        %55 = affine.apply #map8()[%thread_id_x]
        %56 = affine.apply #map9()[%thread_id_x]
        %57 = affine.apply #map10()[%thread_id_x]
        %58 = affine.apply #map11()[%thread_id_x]
        %59 = affine.apply #map12()[%thread_id_x]
        %60 = affine.apply #map13()[%thread_id_x]
        %61 = affine.apply #map14()[%thread_id_x]
        %62 = affine.apply #map15()[%thread_id_x]
        %63 = affine.apply #map16()[%thread_id_x]
        %64 = affine.apply #map17()[%thread_id_x]
        %65 = arith.extf %25 : vector<4xf16> to vector<4xf32>
        %66 = arith.extf %26 : vector<4xf16> to vector<4xf32>
        %67 = arith.extf %27 : vector<4xf16> to vector<4xf32>
        %68 = arith.extf %28 : vector<4xf16> to vector<4xf32>
        %69 = arith.extf %29 : vector<4xf16> to vector<4xf32>
        %70 = arith.extf %30 : vector<4xf16> to vector<4xf32>
        %71 = arith.extf %31 : vector<4xf16> to vector<4xf32>
        %72 = arith.extf %32 : vector<4xf16> to vector<4xf32>
        %73 = arith.extf %33 : vector<4xf16> to vector<4xf32>
        %74 = arith.extf %34 : vector<4xf16> to vector<4xf32>
        %75 = arith.extf %35 : vector<4xf16> to vector<4xf32>
        %76 = arith.extf %36 : vector<4xf16> to vector<4xf32>
        %77 = arith.extf %37 : vector<4xf16> to vector<4xf32>
        %78 = arith.extf %38 : vector<4xf16> to vector<4xf32>
        %79 = arith.extf %39 : vector<4xf16> to vector<4xf32>
        %80 = arith.extf %40 : vector<4xf16> to vector<4xf32>
        %81 = arith.extf %41 : vector<4xf16> to vector<4xf32>
        %82 = arith.extf %42 : vector<4xf16> to vector<4xf32>
        %83 = arith.extf %43 : vector<4xf16> to vector<4xf32>
        %84 = arith.extf %44 : vector<4xf16> to vector<4xf32>
        %85 = affine.apply #map18()[%16, %23, %8]
        %86 = vector.splat %85 : vector<1xindex>
        %87:82 = scf.for %arg10 = %c0 to %45 step %c1 iter_args(%arg11 = %cst_5, %arg12 = %cst_4, %arg13 = %cst_4, %arg14 = %cst_4, %arg15 = %cst_4, %arg16 = %cst_4, %arg17 = %cst_4, %arg18 = %cst_4, %arg19 = %cst_4, %arg20 = %cst_4, %arg21 = %cst_4, %arg22 = %cst_4, %arg23 = %cst_4, %arg24 = %cst_4, %arg25 = %cst_4, %arg26 = %cst_4, %arg27 = %cst_4, %arg28 = %cst_4, %arg29 = %cst_4, %arg30 = %cst_4, %arg31 = %cst_4, %arg32 = %cst_4, %arg33 = %cst_4, %arg34 = %cst_4, %arg35 = %cst_4, %arg36 = %cst_4, %arg37 = %cst_4, %arg38 = %cst_4, %arg39 = %cst_4, %arg40 = %cst_4, %arg41 = %cst_4, %arg42 = %cst_4, %arg43 = %cst_4, %arg44 = %cst_4, %arg45 = %cst_4, %arg46 = %cst_4, %arg47 = %cst_4, %arg48 = %cst_4, %arg49 = %cst_4, %arg50 = %cst_4, %arg51 = %cst_4, %arg52 = %cst_4, %arg53 = %cst_4, %arg54 = %cst_4, %arg55 = %cst_4, %arg56 = %cst_4, %arg57 = %cst_4, %arg58 = %cst_4, %arg59 = %cst_4, %arg60 = %cst_4, %arg61 = %cst_4, %arg62 = %cst_4, %arg63 = %cst_4, %arg64 = %cst_4, %arg65 = %cst_4, %arg66 = %cst_4, %arg67 = %cst_4, %arg68 = %cst_4, %arg69 = %cst_4, %arg70 = %cst_4, %arg71 = %cst_4, %arg72 = %cst_4, %arg73 = %cst_4, %arg74 = %cst_4, %arg75 = %cst_4, %arg76 = %cst_4, %arg77 = %cst_4, %arg78 = %cst_4, %arg79 = %cst_4, %arg80 = %cst_4, %arg81 = %cst_4, %arg82 = %cst_4, %arg83 = %cst_4, %arg84 = %cst_4, %arg85 = %cst_4, %arg86 = %cst_4, %arg87 = %cst_4, %arg88 = %cst_4, %arg89 = %cst_4, %arg90 = %cst_4, %arg91 = %cst_4, %arg92 = %cst_4) -> (vector<1xf32>, vector<1xf32>, vector<1xf32>, vector<1xf32>, vector<1xf32>, vector<1xf32>, vector<1xf32>, vector<1xf32>, vector<1xf32>, vector<1xf32>, vector<1xf32>, vector<1xf32>, vector<1xf32>, vector<1xf32>, vector<1xf32>, vector<1xf32>, vector<1xf32>, vector<1xf32>, vector<1xf32>, vector<1xf32>, vector<1xf32>, vector<1xf32>, vector<1xf32>, vector<1xf32>, vector<1xf32>, vector<1xf32>, vector<1xf32>, vector<1xf32>, vector<1xf32>, vector<1xf32>, vector<1xf32>, vector<1xf32>, vector<1xf32>, vector<1xf32>, vector<1xf32>, vector<1xf32>, vector<1xf32>, vector<1xf32>, vector<1xf32>, vector<1xf32>, vector<1xf32>, vector<1xf32>, vector<1xf32>, vector<1xf32>, vector<1xf32>, vector<1xf32>, vector<1xf32>, vector<1xf32>, vector<1xf32>, vector<1xf32>, vector<1xf32>, vector<1xf32>, vector<1xf32>, vector<1xf32>, vector<1xf32>, vector<1xf32>, vector<1xf32>, vector<1xf32>, vector<1xf32>, vector<1xf32>, vector<1xf32>, vector<1xf32>, vector<1xf32>, vector<1xf32>, vector<1xf32>, vector<1xf32>, vector<1xf32>, vector<1xf32>, vector<1xf32>, vector<1xf32>, vector<1xf32>, vector<1xf32>, vector<1xf32>, vector<1xf32>, vector<1xf32>, vector<1xf32>, vector<1xf32>, vector<1xf32>, vector<1xf32>, vector<1xf32>, vector<1xf32>, vector<1xf32>) {
          %89 = affine.apply #map19()[%thread_id_x, %arg10, %16, %8]
          %90 = arith.cmpi slt, %89, %5 : index
          %91 = vector.splat %90 : vector<1xi1>
          %92 = vector.maskedload %48[%89], %91, %cst_1 : memref<?xi32, strided<[1], offset: ?>>, vector<1xi1>, vector<1xi32> into vector<1xi32>
          %93 = affine.apply #map20()[%thread_id_x, %arg10, %16, %8]
          %94 = arith.cmpi slt, %93, %5 : index
          %95 = vector.splat %94 : vector<1xi1>
          %96 = vector.maskedload %48[%93], %95, %cst_1 : memref<?xi32, strided<[1], offset: ?>>, vector<1xi1>, vector<1xi32> into vector<1xi32>
          %97 = affine.apply #map21()[%thread_id_x, %arg10, %16, %8]
          %98 = arith.cmpi slt, %97, %5 : index
          %99 = vector.splat %98 : vector<1xi1>
          %100 = vector.maskedload %48[%97], %99, %cst_1 : memref<?xi32, strided<[1], offset: ?>>, vector<1xi1>, vector<1xi32> into vector<1xi32>
          %101 = affine.apply #map22()[%thread_id_x, %arg10, %16, %8]
          %102 = arith.cmpi slt, %101, %5 : index
          %103 = vector.splat %102 : vector<1xi1>
          %104 = vector.maskedload %48[%101], %103, %cst_1 : memref<?xi32, strided<[1], offset: ?>>, vector<1xi1>, vector<1xi32> into vector<1xi32>
          %105 = affine.apply #map23()[%thread_id_x, %arg10, %16, %8]
          %106 = arith.cmpi slt, %105, %5 : index
          %107 = vector.splat %106 : vector<1xi1>
          %108 = vector.maskedload %48[%105], %107, %cst_1 : memref<?xi32, strided<[1], offset: ?>>, vector<1xi1>, vector<1xi32> into vector<1xi32>
          %109 = affine.apply #map24()[%thread_id_x, %arg10, %16, %8]
          %110 = arith.cmpi slt, %109, %5 : index
          %111 = vector.splat %110 : vector<1xi1>
          %112 = vector.maskedload %48[%109], %111, %cst_1 : memref<?xi32, strided<[1], offset: ?>>, vector<1xi1>, vector<1xi32> into vector<1xi32>
          %113 = affine.apply #map25()[%thread_id_x, %arg10, %16, %8]
          %114 = arith.cmpi slt, %113, %5 : index
          %115 = vector.splat %114 : vector<1xi1>
          %116 = vector.maskedload %48[%113], %115, %cst_1 : memref<?xi32, strided<[1], offset: ?>>, vector<1xi1>, vector<1xi32> into vector<1xi32>
          %117 = affine.apply #map26()[%thread_id_x, %arg10, %16, %8]
          %118 = arith.cmpi slt, %117, %5 : index
          %119 = vector.splat %118 : vector<1xi1>
          %120 = vector.maskedload %48[%117], %119, %cst_1 : memref<?xi32, strided<[1], offset: ?>>, vector<1xi1>, vector<1xi32> into vector<1xi32>
          %121 = affine.apply #map27()[%thread_id_x, %arg10, %16, %8]
          %122 = arith.cmpi slt, %121, %5 : index
          %123 = vector.splat %122 : vector<1xi1>
          %124 = vector.maskedload %48[%121], %123, %cst_1 : memref<?xi32, strided<[1], offset: ?>>, vector<1xi1>, vector<1xi32> into vector<1xi32>
          %125 = affine.apply #map28()[%thread_id_x, %arg10, %16, %8]
          %126 = arith.cmpi slt, %125, %5 : index
          %127 = vector.splat %126 : vector<1xi1>
          %128 = vector.maskedload %48[%125], %127, %cst_1 : memref<?xi32, strided<[1], offset: ?>>, vector<1xi1>, vector<1xi32> into vector<1xi32>
          %129 = affine.apply #map29()[%thread_id_x, %arg10, %16, %8]
          %130 = arith.cmpi slt, %129, %5 : index
          %131 = vector.splat %130 : vector<1xi1>
          %132 = vector.maskedload %48[%129], %131, %cst_1 : memref<?xi32, strided<[1], offset: ?>>, vector<1xi1>, vector<1xi32> into vector<1xi32>
          %133 = vector.extract %96[0] : i32 from vector<1xi32>
          %134 = arith.index_cast %133 : i32 to index
          %135 = vector.splat %94 : vector<8xi1>
          %136 = vector.maskedload %47[%134, %block_id_y, %49], %135, %cst_0 : memref<?x128x80xf16, strided<[10240, 80, 1], offset: ?>>, vector<8xi1>, vector<8xf16> into vector<8xf16>
          amdgpu.lds_barrier
          vector.store %136, %view_7[%c0, %c0, %50, %49] : memref<1x1x64x84xf16, #gpu.address_space<workgroup>>, vector<8xf16>
          %137 = vector.extract %132[0] : i32 from vector<1xi32>
          %138 = arith.index_cast %137 : i32 to index
          %139 = vector.splat %130 : vector<8xi1>
          %140 = vector.maskedload %47[%138, %block_id_y, %51], %139, %cst_0 : memref<?x128x80xf16, strided<[10240, 80, 1], offset: ?>>, vector<8xi1>, vector<8xf16> into vector<8xf16>
          vector.store %140, %view_7[%c0, %c0, %52, %51] : memref<1x1x64x84xf16, #gpu.address_space<workgroup>>, vector<8xf16>
          %141 = vector.extract %128[0] : i32 from vector<1xi32>
          %142 = arith.index_cast %141 : i32 to index
          %143 = vector.splat %126 : vector<8xi1>
          %144 = vector.maskedload %47[%142, %block_id_y, %53], %143, %cst_0 : memref<?x128x80xf16, strided<[10240, 80, 1], offset: ?>>, vector<8xi1>, vector<8xf16> into vector<8xf16>
          vector.store %144, %view_7[%c0, %c0, %54, %53] : memref<1x1x64x84xf16, #gpu.address_space<workgroup>>, vector<8xf16>
          %145 = vector.extract %124[0] : i32 from vector<1xi32>
          %146 = arith.index_cast %145 : i32 to index
          %147 = vector.splat %122 : vector<8xi1>
          %148 = vector.maskedload %47[%146, %block_id_y, %55], %147, %cst_0 : memref<?x128x80xf16, strided<[10240, 80, 1], offset: ?>>, vector<8xi1>, vector<8xf16> into vector<8xf16>
          vector.store %148, %view_7[%c0, %c0, %56, %55] : memref<1x1x64x84xf16, #gpu.address_space<workgroup>>, vector<8xf16>
          %149 = vector.extract %120[0] : i32 from vector<1xi32>
          %150 = arith.index_cast %149 : i32 to index
          %151 = vector.splat %118 : vector<8xi1>
          %152 = vector.maskedload %47[%150, %block_id_y, %57], %151, %cst_0 : memref<?x128x80xf16, strided<[10240, 80, 1], offset: ?>>, vector<8xi1>, vector<8xf16> into vector<8xf16>
          vector.store %152, %view_7[%c0, %c0, %58, %57] : memref<1x1x64x84xf16, #gpu.address_space<workgroup>>, vector<8xf16>
          %153 = vector.extract %116[0] : i32 from vector<1xi32>
          %154 = arith.index_cast %153 : i32 to index
          %155 = vector.splat %114 : vector<8xi1>
          %156 = vector.maskedload %47[%154, %block_id_y, %49], %155, %cst_0 : memref<?x128x80xf16, strided<[10240, 80, 1], offset: ?>>, vector<8xi1>, vector<8xf16> into vector<8xf16>
          vector.store %156, %view_7[%c0, %c0, %59, %49] : memref<1x1x64x84xf16, #gpu.address_space<workgroup>>, vector<8xf16>
          %157 = vector.extract %112[0] : i32 from vector<1xi32>
          %158 = arith.index_cast %157 : i32 to index
          %159 = vector.splat %110 : vector<8xi1>
          %160 = vector.maskedload %47[%158, %block_id_y, %51], %159, %cst_0 : memref<?x128x80xf16, strided<[10240, 80, 1], offset: ?>>, vector<8xi1>, vector<8xf16> into vector<8xf16>
          vector.store %160, %view_7[%c0, %c0, %60, %51] : memref<1x1x64x84xf16, #gpu.address_space<workgroup>>, vector<8xf16>
          %161 = vector.extract %108[0] : i32 from vector<1xi32>
          %162 = arith.index_cast %161 : i32 to index
          %163 = vector.splat %106 : vector<8xi1>
          %164 = vector.maskedload %47[%162, %block_id_y, %53], %163, %cst_0 : memref<?x128x80xf16, strided<[10240, 80, 1], offset: ?>>, vector<8xi1>, vector<8xf16> into vector<8xf16>
          vector.store %164, %view_7[%c0, %c0, %61, %53] : memref<1x1x64x84xf16, #gpu.address_space<workgroup>>, vector<8xf16>
          %165 = vector.extract %104[0] : i32 from vector<1xi32>
          %166 = arith.index_cast %165 : i32 to index
          %167 = vector.splat %102 : vector<8xi1>
          %168 = vector.maskedload %47[%166, %block_id_y, %55], %167, %cst_0 : memref<?x128x80xf16, strided<[10240, 80, 1], offset: ?>>, vector<8xi1>, vector<8xf16> into vector<8xf16>
          vector.store %168, %view_7[%c0, %c0, %62, %55] : memref<1x1x64x84xf16, #gpu.address_space<workgroup>>, vector<8xf16>
          %169 = vector.extract %100[0] : i32 from vector<1xi32>
          %170 = arith.index_cast %169 : i32 to index
          %171 = vector.splat %98 : vector<8xi1>
          %172 = vector.maskedload %47[%170, %block_id_y, %57], %171, %cst_0 : memref<?x128x80xf16, strided<[10240, 80, 1], offset: ?>>, vector<8xi1>, vector<8xf16> into vector<8xf16>
          vector.store %172, %view_7[%c0, %c0, %63, %57] : memref<1x1x64x84xf16, #gpu.address_space<workgroup>>, vector<8xf16>
          %173 = vector.extract %92[0] : i32 from vector<1xi32>
          %174 = arith.index_cast %173 : i32 to index
          %175 = vector.maskedload %46[%174, %block_id_y, %c0], %91, %cst : memref<?x128x80xf16, strided<[10240, 80, 1], offset: ?>>, vector<1xi1>, vector<1xf16> into vector<1xf16>
          %176 = vector.maskedload %46[%174, %block_id_y, %c1], %91, %cst : memref<?x128x80xf16, strided<[10240, 80, 1], offset: ?>>, vector<1xi1>, vector<1xf16> into vector<1xf16>
          %177 = vector.maskedload %46[%174, %block_id_y, %c2], %91, %cst : memref<?x128x80xf16, strided<[10240, 80, 1], offset: ?>>, vector<1xi1>, vector<1xf16> into vector<1xf16>
          %178 = vector.maskedload %46[%174, %block_id_y, %c3], %91, %cst : memref<?x128x80xf16, strided<[10240, 80, 1], offset: ?>>, vector<1xi1>, vector<1xf16> into vector<1xf16>
          %179 = vector.maskedload %46[%174, %block_id_y, %c4], %91, %cst : memref<?x128x80xf16, strided<[10240, 80, 1], offset: ?>>, vector<1xi1>, vector<1xf16> into vector<1xf16>
          %180 = vector.maskedload %46[%174, %block_id_y, %c5], %91, %cst : memref<?x128x80xf16, strided<[10240, 80, 1], offset: ?>>, vector<1xi1>, vector<1xf16> into vector<1xf16>
          %181 = vector.maskedload %46[%174, %block_id_y, %c6], %91, %cst : memref<?x128x80xf16, strided<[10240, 80, 1], offset: ?>>, vector<1xi1>, vector<1xf16> into vector<1xf16>
          %182 = vector.maskedload %46[%174, %block_id_y, %c7], %91, %cst : memref<?x128x80xf16, strided<[10240, 80, 1], offset: ?>>, vector<1xi1>, vector<1xf16> into vector<1xf16>
          %183 = vector.maskedload %46[%174, %block_id_y, %c8], %91, %cst : memref<?x128x80xf16, strided<[10240, 80, 1], offset: ?>>, vector<1xi1>, vector<1xf16> into vector<1xf16>
          %184 = vector.maskedload %46[%174, %block_id_y, %c9], %91, %cst : memref<?x128x80xf16, strided<[10240, 80, 1], offset: ?>>, vector<1xi1>, vector<1xf16> into vector<1xf16>
          %185 = vector.maskedload %46[%174, %block_id_y, %c10], %91, %cst : memref<?x128x80xf16, strided<[10240, 80, 1], offset: ?>>, vector<1xi1>, vector<1xf16> into vector<1xf16>
          %186 = vector.maskedload %46[%174, %block_id_y, %c11], %91, %cst : memref<?x128x80xf16, strided<[10240, 80, 1], offset: ?>>, vector<1xi1>, vector<1xf16> into vector<1xf16>
          %187 = vector.maskedload %46[%174, %block_id_y, %c12], %91, %cst : memref<?x128x80xf16, strided<[10240, 80, 1], offset: ?>>, vector<1xi1>, vector<1xf16> into vector<1xf16>
          %188 = vector.maskedload %46[%174, %block_id_y, %c13], %91, %cst : memref<?x128x80xf16, strided<[10240, 80, 1], offset: ?>>, vector<1xi1>, vector<1xf16> into vector<1xf16>
          %189 = vector.maskedload %46[%174, %block_id_y, %c14], %91, %cst : memref<?x128x80xf16, strided<[10240, 80, 1], offset: ?>>, vector<1xi1>, vector<1xf16> into vector<1xf16>
          %190 = vector.maskedload %46[%174, %block_id_y, %c15], %91, %cst : memref<?x128x80xf16, strided<[10240, 80, 1], offset: ?>>, vector<1xi1>, vector<1xf16> into vector<1xf16>
          %191 = vector.maskedload %46[%174, %block_id_y, %c16], %91, %cst : memref<?x128x80xf16, strided<[10240, 80, 1], offset: ?>>, vector<1xi1>, vector<1xf16> into vector<1xf16>
          %192 = vector.maskedload %46[%174, %block_id_y, %c17], %91, %cst : memref<?x128x80xf16, strided<[10240, 80, 1], offset: ?>>, vector<1xi1>, vector<1xf16> into vector<1xf16>
          %193 = vector.maskedload %46[%174, %block_id_y, %c18], %91, %cst : memref<?x128x80xf16, strided<[10240, 80, 1], offset: ?>>, vector<1xi1>, vector<1xf16> into vector<1xf16>
          %194 = vector.maskedload %46[%174, %block_id_y, %c19], %91, %cst : memref<?x128x80xf16, strided<[10240, 80, 1], offset: ?>>, vector<1xi1>, vector<1xf16> into vector<1xf16>
          %195 = vector.maskedload %46[%174, %block_id_y, %c20], %91, %cst : memref<?x128x80xf16, strided<[10240, 80, 1], offset: ?>>, vector<1xi1>, vector<1xf16> into vector<1xf16>
          %196 = vector.maskedload %46[%174, %block_id_y, %c21], %91, %cst : memref<?x128x80xf16, strided<[10240, 80, 1], offset: ?>>, vector<1xi1>, vector<1xf16> into vector<1xf16>
          %197 = vector.maskedload %46[%174, %block_id_y, %c22], %91, %cst : memref<?x128x80xf16, strided<[10240, 80, 1], offset: ?>>, vector<1xi1>, vector<1xf16> into vector<1xf16>
          %198 = vector.maskedload %46[%174, %block_id_y, %c23], %91, %cst : memref<?x128x80xf16, strided<[10240, 80, 1], offset: ?>>, vector<1xi1>, vector<1xf16> into vector<1xf16>
          %199 = vector.maskedload %46[%174, %block_id_y, %c24], %91, %cst : memref<?x128x80xf16, strided<[10240, 80, 1], offset: ?>>, vector<1xi1>, vector<1xf16> into vector<1xf16>
          %200 = vector.maskedload %46[%174, %block_id_y, %c25], %91, %cst : memref<?x128x80xf16, strided<[10240, 80, 1], offset: ?>>, vector<1xi1>, vector<1xf16> into vector<1xf16>
          %201 = vector.maskedload %46[%174, %block_id_y, %c26], %91, %cst : memref<?x128x80xf16, strided<[10240, 80, 1], offset: ?>>, vector<1xi1>, vector<1xf16> into vector<1xf16>
          %202 = vector.maskedload %46[%174, %block_id_y, %c27], %91, %cst : memref<?x128x80xf16, strided<[10240, 80, 1], offset: ?>>, vector<1xi1>, vector<1xf16> into vector<1xf16>
          %203 = vector.maskedload %46[%174, %block_id_y, %c28], %91, %cst : memref<?x128x80xf16, strided<[10240, 80, 1], offset: ?>>, vector<1xi1>, vector<1xf16> into vector<1xf16>
          %204 = vector.maskedload %46[%174, %block_id_y, %c29], %91, %cst : memref<?x128x80xf16, strided<[10240, 80, 1], offset: ?>>, vector<1xi1>, vector<1xf16> into vector<1xf16>
          %205 = vector.maskedload %46[%174, %block_id_y, %c30], %91, %cst : memref<?x128x80xf16, strided<[10240, 80, 1], offset: ?>>, vector<1xi1>, vector<1xf16> into vector<1xf16>
          %206 = vector.maskedload %46[%174, %block_id_y, %c31], %91, %cst : memref<?x128x80xf16, strided<[10240, 80, 1], offset: ?>>, vector<1xi1>, vector<1xf16> into vector<1xf16>
          %207 = vector.maskedload %46[%174, %block_id_y, %c32], %91, %cst : memref<?x128x80xf16, strided<[10240, 80, 1], offset: ?>>, vector<1xi1>, vector<1xf16> into vector<1xf16>
          %208 = vector.maskedload %46[%174, %block_id_y, %c33], %91, %cst : memref<?x128x80xf16, strided<[10240, 80, 1], offset: ?>>, vector<1xi1>, vector<1xf16> into vector<1xf16>
          %209 = vector.maskedload %46[%174, %block_id_y, %c34], %91, %cst : memref<?x128x80xf16, strided<[10240, 80, 1], offset: ?>>, vector<1xi1>, vector<1xf16> into vector<1xf16>
          %210 = vector.maskedload %46[%174, %block_id_y, %c35], %91, %cst : memref<?x128x80xf16, strided<[10240, 80, 1], offset: ?>>, vector<1xi1>, vector<1xf16> into vector<1xf16>
          %211 = vector.maskedload %46[%174, %block_id_y, %c36], %91, %cst : memref<?x128x80xf16, strided<[10240, 80, 1], offset: ?>>, vector<1xi1>, vector<1xf16> into vector<1xf16>
          %212 = vector.maskedload %46[%174, %block_id_y, %c37], %91, %cst : memref<?x128x80xf16, strided<[10240, 80, 1], offset: ?>>, vector<1xi1>, vector<1xf16> into vector<1xf16>
          %213 = vector.maskedload %46[%174, %block_id_y, %c38], %91, %cst : memref<?x128x80xf16, strided<[10240, 80, 1], offset: ?>>, vector<1xi1>, vector<1xf16> into vector<1xf16>
          %214 = vector.maskedload %46[%174, %block_id_y, %c39], %91, %cst : memref<?x128x80xf16, strided<[10240, 80, 1], offset: ?>>, vector<1xi1>, vector<1xf16> into vector<1xf16>
          %215 = vector.maskedload %46[%174, %block_id_y, %c40], %91, %cst : memref<?x128x80xf16, strided<[10240, 80, 1], offset: ?>>, vector<1xi1>, vector<1xf16> into vector<1xf16>
          %216 = vector.maskedload %46[%174, %block_id_y, %c41], %91, %cst : memref<?x128x80xf16, strided<[10240, 80, 1], offset: ?>>, vector<1xi1>, vector<1xf16> into vector<1xf16>
          %217 = vector.maskedload %46[%174, %block_id_y, %c42], %91, %cst : memref<?x128x80xf16, strided<[10240, 80, 1], offset: ?>>, vector<1xi1>, vector<1xf16> into vector<1xf16>
          %218 = vector.maskedload %46[%174, %block_id_y, %c43], %91, %cst : memref<?x128x80xf16, strided<[10240, 80, 1], offset: ?>>, vector<1xi1>, vector<1xf16> into vector<1xf16>
          %219 = vector.maskedload %46[%174, %block_id_y, %c44], %91, %cst : memref<?x128x80xf16, strided<[10240, 80, 1], offset: ?>>, vector<1xi1>, vector<1xf16> into vector<1xf16>
          %220 = vector.maskedload %46[%174, %block_id_y, %c45], %91, %cst : memref<?x128x80xf16, strided<[10240, 80, 1], offset: ?>>, vector<1xi1>, vector<1xf16> into vector<1xf16>
          %221 = vector.maskedload %46[%174, %block_id_y, %c46], %91, %cst : memref<?x128x80xf16, strided<[10240, 80, 1], offset: ?>>, vector<1xi1>, vector<1xf16> into vector<1xf16>
          %222 = vector.maskedload %46[%174, %block_id_y, %c47], %91, %cst : memref<?x128x80xf16, strided<[10240, 80, 1], offset: ?>>, vector<1xi1>, vector<1xf16> into vector<1xf16>
          %223 = vector.maskedload %46[%174, %block_id_y, %c48], %91, %cst : memref<?x128x80xf16, strided<[10240, 80, 1], offset: ?>>, vector<1xi1>, vector<1xf16> into vector<1xf16>
          %224 = vector.maskedload %46[%174, %block_id_y, %c49], %91, %cst : memref<?x128x80xf16, strided<[10240, 80, 1], offset: ?>>, vector<1xi1>, vector<1xf16> into vector<1xf16>
          %225 = vector.maskedload %46[%174, %block_id_y, %c50], %91, %cst : memref<?x128x80xf16, strided<[10240, 80, 1], offset: ?>>, vector<1xi1>, vector<1xf16> into vector<1xf16>
          %226 = vector.maskedload %46[%174, %block_id_y, %c51], %91, %cst : memref<?x128x80xf16, strided<[10240, 80, 1], offset: ?>>, vector<1xi1>, vector<1xf16> into vector<1xf16>
          %227 = vector.maskedload %46[%174, %block_id_y, %c52], %91, %cst : memref<?x128x80xf16, strided<[10240, 80, 1], offset: ?>>, vector<1xi1>, vector<1xf16> into vector<1xf16>
          %228 = vector.maskedload %46[%174, %block_id_y, %c53], %91, %cst : memref<?x128x80xf16, strided<[10240, 80, 1], offset: ?>>, vector<1xi1>, vector<1xf16> into vector<1xf16>
          %229 = vector.maskedload %46[%174, %block_id_y, %c54], %91, %cst : memref<?x128x80xf16, strided<[10240, 80, 1], offset: ?>>, vector<1xi1>, vector<1xf16> into vector<1xf16>
          %230 = vector.maskedload %46[%174, %block_id_y, %c55], %91, %cst : memref<?x128x80xf16, strided<[10240, 80, 1], offset: ?>>, vector<1xi1>, vector<1xf16> into vector<1xf16>
          %231 = vector.maskedload %46[%174, %block_id_y, %c56], %91, %cst : memref<?x128x80xf16, strided<[10240, 80, 1], offset: ?>>, vector<1xi1>, vector<1xf16> into vector<1xf16>
          %232 = vector.maskedload %46[%174, %block_id_y, %c57], %91, %cst : memref<?x128x80xf16, strided<[10240, 80, 1], offset: ?>>, vector<1xi1>, vector<1xf16> into vector<1xf16>
          %233 = vector.maskedload %46[%174, %block_id_y, %c58], %91, %cst : memref<?x128x80xf16, strided<[10240, 80, 1], offset: ?>>, vector<1xi1>, vector<1xf16> into vector<1xf16>
          %234 = vector.maskedload %46[%174, %block_id_y, %c59], %91, %cst : memref<?x128x80xf16, strided<[10240, 80, 1], offset: ?>>, vector<1xi1>, vector<1xf16> into vector<1xf16>
          %235 = vector.maskedload %46[%174, %block_id_y, %c60], %91, %cst : memref<?x128x80xf16, strided<[10240, 80, 1], offset: ?>>, vector<1xi1>, vector<1xf16> into vector<1xf16>
          %236 = vector.maskedload %46[%174, %block_id_y, %c61], %91, %cst : memref<?x128x80xf16, strided<[10240, 80, 1], offset: ?>>, vector<1xi1>, vector<1xf16> into vector<1xf16>
          %237 = vector.maskedload %46[%174, %block_id_y, %c62], %91, %cst : memref<?x128x80xf16, strided<[10240, 80, 1], offset: ?>>, vector<1xi1>, vector<1xf16> into vector<1xf16>
          %238 = vector.maskedload %46[%174, %block_id_y, %c63], %91, %cst : memref<?x128x80xf16, strided<[10240, 80, 1], offset: ?>>, vector<1xi1>, vector<1xf16> into vector<1xf16>
          %239 = vector.maskedload %46[%174, %block_id_y, %c64], %91, %cst : memref<?x128x80xf16, strided<[10240, 80, 1], offset: ?>>, vector<1xi1>, vector<1xf16> into vector<1xf16>
          %240 = vector.maskedload %46[%174, %block_id_y, %c65], %91, %cst : memref<?x128x80xf16, strided<[10240, 80, 1], offset: ?>>, vector<1xi1>, vector<1xf16> into vector<1xf16>
          %241 = vector.maskedload %46[%174, %block_id_y, %c66], %91, %cst : memref<?x128x80xf16, strided<[10240, 80, 1], offset: ?>>, vector<1xi1>, vector<1xf16> into vector<1xf16>
          %242 = vector.maskedload %46[%174, %block_id_y, %c67], %91, %cst : memref<?x128x80xf16, strided<[10240, 80, 1], offset: ?>>, vector<1xi1>, vector<1xf16> into vector<1xf16>
          %243 = vector.maskedload %46[%174, %block_id_y, %c68], %91, %cst : memref<?x128x80xf16, strided<[10240, 80, 1], offset: ?>>, vector<1xi1>, vector<1xf16> into vector<1xf16>
          %244 = vector.maskedload %46[%174, %block_id_y, %c69], %91, %cst : memref<?x128x80xf16, strided<[10240, 80, 1], offset: ?>>, vector<1xi1>, vector<1xf16> into vector<1xf16>
          %245 = vector.maskedload %46[%174, %block_id_y, %c70], %91, %cst : memref<?x128x80xf16, strided<[10240, 80, 1], offset: ?>>, vector<1xi1>, vector<1xf16> into vector<1xf16>
          %246 = vector.maskedload %46[%174, %block_id_y, %c71], %91, %cst : memref<?x128x80xf16, strided<[10240, 80, 1], offset: ?>>, vector<1xi1>, vector<1xf16> into vector<1xf16>
          %247 = vector.maskedload %46[%174, %block_id_y, %c72], %91, %cst : memref<?x128x80xf16, strided<[10240, 80, 1], offset: ?>>, vector<1xi1>, vector<1xf16> into vector<1xf16>
          %248 = vector.maskedload %46[%174, %block_id_y, %c73], %91, %cst : memref<?x128x80xf16, strided<[10240, 80, 1], offset: ?>>, vector<1xi1>, vector<1xf16> into vector<1xf16>
          %249 = vector.maskedload %46[%174, %block_id_y, %c74], %91, %cst : memref<?x128x80xf16, strided<[10240, 80, 1], offset: ?>>, vector<1xi1>, vector<1xf16> into vector<1xf16>
          %250 = vector.maskedload %46[%174, %block_id_y, %c75], %91, %cst : memref<?x128x80xf16, strided<[10240, 80, 1], offset: ?>>, vector<1xi1>, vector<1xf16> into vector<1xf16>
          %251 = vector.maskedload %46[%174, %block_id_y, %c76], %91, %cst : memref<?x128x80xf16, strided<[10240, 80, 1], offset: ?>>, vector<1xi1>, vector<1xf16> into vector<1xf16>
          %252 = vector.maskedload %46[%174, %block_id_y, %c77], %91, %cst : memref<?x128x80xf16, strided<[10240, 80, 1], offset: ?>>, vector<1xi1>, vector<1xf16> into vector<1xf16>
          %253 = vector.maskedload %46[%174, %block_id_y, %c78], %91, %cst : memref<?x128x80xf16, strided<[10240, 80, 1], offset: ?>>, vector<1xi1>, vector<1xf16> into vector<1xf16>
          %254 = vector.maskedload %46[%174, %block_id_y, %c79], %91, %cst : memref<?x128x80xf16, strided<[10240, 80, 1], offset: ?>>, vector<1xi1>, vector<1xf16> into vector<1xf16>
          vector.store %175, %view[%c0, %c0, %c0, %64] : memref<1x1x80x68xf16, #gpu.address_space<workgroup>>, vector<1xf16>
          vector.store %176, %view[%c0, %c0, %c1, %64] : memref<1x1x80x68xf16, #gpu.address_space<workgroup>>, vector<1xf16>
          vector.store %177, %view[%c0, %c0, %c2, %64] : memref<1x1x80x68xf16, #gpu.address_space<workgroup>>, vector<1xf16>
          vector.store %178, %view[%c0, %c0, %c3, %64] : memref<1x1x80x68xf16, #gpu.address_space<workgroup>>, vector<1xf16>
          vector.store %179, %view[%c0, %c0, %c4, %64] : memref<1x1x80x68xf16, #gpu.address_space<workgroup>>, vector<1xf16>
          vector.store %180, %view[%c0, %c0, %c5, %64] : memref<1x1x80x68xf16, #gpu.address_space<workgroup>>, vector<1xf16>
          vector.store %181, %view[%c0, %c0, %c6, %64] : memref<1x1x80x68xf16, #gpu.address_space<workgroup>>, vector<1xf16>
          vector.store %182, %view[%c0, %c0, %c7, %64] : memref<1x1x80x68xf16, #gpu.address_space<workgroup>>, vector<1xf16>
          vector.store %183, %view[%c0, %c0, %c8, %64] : memref<1x1x80x68xf16, #gpu.address_space<workgroup>>, vector<1xf16>
          vector.store %184, %view[%c0, %c0, %c9, %64] : memref<1x1x80x68xf16, #gpu.address_space<workgroup>>, vector<1xf16>
          vector.store %185, %view[%c0, %c0, %c10, %64] : memref<1x1x80x68xf16, #gpu.address_space<workgroup>>, vector<1xf16>
          vector.store %186, %view[%c0, %c0, %c11, %64] : memref<1x1x80x68xf16, #gpu.address_space<workgroup>>, vector<1xf16>
          vector.store %187, %view[%c0, %c0, %c12, %64] : memref<1x1x80x68xf16, #gpu.address_space<workgroup>>, vector<1xf16>
          vector.store %188, %view[%c0, %c0, %c13, %64] : memref<1x1x80x68xf16, #gpu.address_space<workgroup>>, vector<1xf16>
          vector.store %189, %view[%c0, %c0, %c14, %64] : memref<1x1x80x68xf16, #gpu.address_space<workgroup>>, vector<1xf16>
          vector.store %190, %view[%c0, %c0, %c15, %64] : memref<1x1x80x68xf16, #gpu.address_space<workgroup>>, vector<1xf16>
          vector.store %191, %view[%c0, %c0, %c16, %64] : memref<1x1x80x68xf16, #gpu.address_space<workgroup>>, vector<1xf16>
          vector.store %192, %view[%c0, %c0, %c17, %64] : memref<1x1x80x68xf16, #gpu.address_space<workgroup>>, vector<1xf16>
          vector.store %193, %view[%c0, %c0, %c18, %64] : memref<1x1x80x68xf16, #gpu.address_space<workgroup>>, vector<1xf16>
          vector.store %194, %view[%c0, %c0, %c19, %64] : memref<1x1x80x68xf16, #gpu.address_space<workgroup>>, vector<1xf16>
          vector.store %195, %view[%c0, %c0, %c20, %64] : memref<1x1x80x68xf16, #gpu.address_space<workgroup>>, vector<1xf16>
          vector.store %196, %view[%c0, %c0, %c21, %64] : memref<1x1x80x68xf16, #gpu.address_space<workgroup>>, vector<1xf16>
          vector.store %197, %view[%c0, %c0, %c22, %64] : memref<1x1x80x68xf16, #gpu.address_space<workgroup>>, vector<1xf16>
          vector.store %198, %view[%c0, %c0, %c23, %64] : memref<1x1x80x68xf16, #gpu.address_space<workgroup>>, vector<1xf16>
          vector.store %199, %view[%c0, %c0, %c24, %64] : memref<1x1x80x68xf16, #gpu.address_space<workgroup>>, vector<1xf16>
          vector.store %200, %view[%c0, %c0, %c25, %64] : memref<1x1x80x68xf16, #gpu.address_space<workgroup>>, vector<1xf16>
          vector.store %201, %view[%c0, %c0, %c26, %64] : memref<1x1x80x68xf16, #gpu.address_space<workgroup>>, vector<1xf16>
          vector.store %202, %view[%c0, %c0, %c27, %64] : memref<1x1x80x68xf16, #gpu.address_space<workgroup>>, vector<1xf16>
          vector.store %203, %view[%c0, %c0, %c28, %64] : memref<1x1x80x68xf16, #gpu.address_space<workgroup>>, vector<1xf16>
          vector.store %204, %view[%c0, %c0, %c29, %64] : memref<1x1x80x68xf16, #gpu.address_space<workgroup>>, vector<1xf16>
          vector.store %205, %view[%c0, %c0, %c30, %64] : memref<1x1x80x68xf16, #gpu.address_space<workgroup>>, vector<1xf16>
          vector.store %206, %view[%c0, %c0, %c31, %64] : memref<1x1x80x68xf16, #gpu.address_space<workgroup>>, vector<1xf16>
          vector.store %207, %view[%c0, %c0, %c32, %64] : memref<1x1x80x68xf16, #gpu.address_space<workgroup>>, vector<1xf16>
          vector.store %208, %view[%c0, %c0, %c33, %64] : memref<1x1x80x68xf16, #gpu.address_space<workgroup>>, vector<1xf16>
          vector.store %209, %view[%c0, %c0, %c34, %64] : memref<1x1x80x68xf16, #gpu.address_space<workgroup>>, vector<1xf16>
          vector.store %210, %view[%c0, %c0, %c35, %64] : memref<1x1x80x68xf16, #gpu.address_space<workgroup>>, vector<1xf16>
          vector.store %211, %view[%c0, %c0, %c36, %64] : memref<1x1x80x68xf16, #gpu.address_space<workgroup>>, vector<1xf16>
          vector.store %212, %view[%c0, %c0, %c37, %64] : memref<1x1x80x68xf16, #gpu.address_space<workgroup>>, vector<1xf16>
          vector.store %213, %view[%c0, %c0, %c38, %64] : memref<1x1x80x68xf16, #gpu.address_space<workgroup>>, vector<1xf16>
          vector.store %214, %view[%c0, %c0, %c39, %64] : memref<1x1x80x68xf16, #gpu.address_space<workgroup>>, vector<1xf16>
          vector.store %215, %view[%c0, %c0, %c40, %64] : memref<1x1x80x68xf16, #gpu.address_space<workgroup>>, vector<1xf16>
          vector.store %216, %view[%c0, %c0, %c41, %64] : memref<1x1x80x68xf16, #gpu.address_space<workgroup>>, vector<1xf16>
          vector.store %217, %view[%c0, %c0, %c42, %64] : memref<1x1x80x68xf16, #gpu.address_space<workgroup>>, vector<1xf16>
          vector.store %218, %view[%c0, %c0, %c43, %64] : memref<1x1x80x68xf16, #gpu.address_space<workgroup>>, vector<1xf16>
          vector.store %219, %view[%c0, %c0, %c44, %64] : memref<1x1x80x68xf16, #gpu.address_space<workgroup>>, vector<1xf16>
          vector.store %220, %view[%c0, %c0, %c45, %64] : memref<1x1x80x68xf16, #gpu.address_space<workgroup>>, vector<1xf16>
          vector.store %221, %view[%c0, %c0, %c46, %64] : memref<1x1x80x68xf16, #gpu.address_space<workgroup>>, vector<1xf16>
          vector.store %222, %view[%c0, %c0, %c47, %64] : memref<1x1x80x68xf16, #gpu.address_space<workgroup>>, vector<1xf16>
          vector.store %223, %view[%c0, %c0, %c48, %64] : memref<1x1x80x68xf16, #gpu.address_space<workgroup>>, vector<1xf16>
          vector.store %224, %view[%c0, %c0, %c49, %64] : memref<1x1x80x68xf16, #gpu.address_space<workgroup>>, vector<1xf16>
          vector.store %225, %view[%c0, %c0, %c50, %64] : memref<1x1x80x68xf16, #gpu.address_space<workgroup>>, vector<1xf16>
          vector.store %226, %view[%c0, %c0, %c51, %64] : memref<1x1x80x68xf16, #gpu.address_space<workgroup>>, vector<1xf16>
          vector.store %227, %view[%c0, %c0, %c52, %64] : memref<1x1x80x68xf16, #gpu.address_space<workgroup>>, vector<1xf16>
          vector.store %228, %view[%c0, %c0, %c53, %64] : memref<1x1x80x68xf16, #gpu.address_space<workgroup>>, vector<1xf16>
          vector.store %229, %view[%c0, %c0, %c54, %64] : memref<1x1x80x68xf16, #gpu.address_space<workgroup>>, vector<1xf16>
          vector.store %230, %view[%c0, %c0, %c55, %64] : memref<1x1x80x68xf16, #gpu.address_space<workgroup>>, vector<1xf16>
          vector.store %231, %view[%c0, %c0, %c56, %64] : memref<1x1x80x68xf16, #gpu.address_space<workgroup>>, vector<1xf16>
          vector.store %232, %view[%c0, %c0, %c57, %64] : memref<1x1x80x68xf16, #gpu.address_space<workgroup>>, vector<1xf16>
          vector.store %233, %view[%c0, %c0, %c58, %64] : memref<1x1x80x68xf16, #gpu.address_space<workgroup>>, vector<1xf16>
          vector.store %234, %view[%c0, %c0, %c59, %64] : memref<1x1x80x68xf16, #gpu.address_space<workgroup>>, vector<1xf16>
          vector.store %235, %view[%c0, %c0, %c60, %64] : memref<1x1x80x68xf16, #gpu.address_space<workgroup>>, vector<1xf16>
          vector.store %236, %view[%c0, %c0, %c61, %64] : memref<1x1x80x68xf16, #gpu.address_space<workgroup>>, vector<1xf16>
          vector.store %237, %view[%c0, %c0, %c62, %64] : memref<1x1x80x68xf16, #gpu.address_space<workgroup>>, vector<1xf16>
          vector.store %238, %view[%c0, %c0, %c63, %64] : memref<1x1x80x68xf16, #gpu.address_space<workgroup>>, vector<1xf16>
          vector.store %239, %view[%c0, %c0, %c64, %64] : memref<1x1x80x68xf16, #gpu.address_space<workgroup>>, vector<1xf16>
          vector.store %240, %view[%c0, %c0, %c65, %64] : memref<1x1x80x68xf16, #gpu.address_space<workgroup>>, vector<1xf16>
          vector.store %241, %view[%c0, %c0, %c66, %64] : memref<1x1x80x68xf16, #gpu.address_space<workgroup>>, vector<1xf16>
          vector.store %242, %view[%c0, %c0, %c67, %64] : memref<1x1x80x68xf16, #gpu.address_space<workgroup>>, vector<1xf16>
          vector.store %243, %view[%c0, %c0, %c68, %64] : memref<1x1x80x68xf16, #gpu.address_space<workgroup>>, vector<1xf16>
          vector.store %244, %view[%c0, %c0, %c69, %64] : memref<1x1x80x68xf16, #gpu.address_space<workgroup>>, vector<1xf16>
          vector.store %245, %view[%c0, %c0, %c70, %64] : memref<1x1x80x68xf16, #gpu.address_space<workgroup>>, vector<1xf16>
          vector.store %246, %view[%c0, %c0, %c71, %64] : memref<1x1x80x68xf16, #gpu.address_space<workgroup>>, vector<1xf16>
          vector.store %247, %view[%c0, %c0, %c72, %64] : memref<1x1x80x68xf16, #gpu.address_space<workgroup>>, vector<1xf16>
          vector.store %248, %view[%c0, %c0, %c73, %64] : memref<1x1x80x68xf16, #gpu.address_space<workgroup>>, vector<1xf16>
          vector.store %249, %view[%c0, %c0, %c74, %64] : memref<1x1x80x68xf16, #gpu.address_space<workgroup>>, vector<1xf16>
          vector.store %250, %view[%c0, %c0, %c75, %64] : memref<1x1x80x68xf16, #gpu.address_space<workgroup>>, vector<1xf16>
          vector.store %251, %view[%c0, %c0, %c76, %64] : memref<1x1x80x68xf16, #gpu.address_space<workgroup>>, vector<1xf16>
          vector.store %252, %view[%c0, %c0, %c77, %64] : memref<1x1x80x68xf16, #gpu.address_space<workgroup>>, vector<1xf16>
          vector.store %253, %view[%c0, %c0, %c78, %64] : memref<1x1x80x68xf16, #gpu.address_space<workgroup>>, vector<1xf16>
          vector.store %254, %view[%c0, %c0, %c79, %64] : memref<1x1x80x68xf16, #gpu.address_space<workgroup>>, vector<1xf16>
          amdgpu.lds_barrier
          %255 = memref.load %view[%c0, %c0, %c0, %64] : memref<1x1x80x68xf16, #gpu.address_space<workgroup>>
          %256 = memref.load %view[%c0, %c0, %c1, %64] : memref<1x1x80x68xf16, #gpu.address_space<workgroup>>
          %257 = memref.load %view[%c0, %c0, %c2, %64] : memref<1x1x80x68xf16, #gpu.address_space<workgroup>>
          %258 = memref.load %view[%c0, %c0, %c3, %64] : memref<1x1x80x68xf16, #gpu.address_space<workgroup>>
          %259 = memref.load %view[%c0, %c0, %c4, %64] : memref<1x1x80x68xf16, #gpu.address_space<workgroup>>
          %260 = memref.load %view[%c0, %c0, %c5, %64] : memref<1x1x80x68xf16, #gpu.address_space<workgroup>>
          %261 = memref.load %view[%c0, %c0, %c6, %64] : memref<1x1x80x68xf16, #gpu.address_space<workgroup>>
          %262 = memref.load %view[%c0, %c0, %c7, %64] : memref<1x1x80x68xf16, #gpu.address_space<workgroup>>
          %263 = memref.load %view[%c0, %c0, %c8, %64] : memref<1x1x80x68xf16, #gpu.address_space<workgroup>>
          %264 = memref.load %view[%c0, %c0, %c9, %64] : memref<1x1x80x68xf16, #gpu.address_space<workgroup>>
          %265 = memref.load %view[%c0, %c0, %c10, %64] : memref<1x1x80x68xf16, #gpu.address_space<workgroup>>
          %266 = memref.load %view[%c0, %c0, %c11, %64] : memref<1x1x80x68xf16, #gpu.address_space<workgroup>>
          %267 = memref.load %view[%c0, %c0, %c12, %64] : memref<1x1x80x68xf16, #gpu.address_space<workgroup>>
          %268 = memref.load %view[%c0, %c0, %c13, %64] : memref<1x1x80x68xf16, #gpu.address_space<workgroup>>
          %269 = memref.load %view[%c0, %c0, %c14, %64] : memref<1x1x80x68xf16, #gpu.address_space<workgroup>>
          %270 = memref.load %view[%c0, %c0, %c15, %64] : memref<1x1x80x68xf16, #gpu.address_space<workgroup>>
          %271 = memref.load %view[%c0, %c0, %c16, %64] : memref<1x1x80x68xf16, #gpu.address_space<workgroup>>
          %272 = memref.load %view[%c0, %c0, %c17, %64] : memref<1x1x80x68xf16, #gpu.address_space<workgroup>>
          %273 = memref.load %view[%c0, %c0, %c18, %64] : memref<1x1x80x68xf16, #gpu.address_space<workgroup>>
          %274 = memref.load %view[%c0, %c0, %c19, %64] : memref<1x1x80x68xf16, #gpu.address_space<workgroup>>
          %275 = memref.load %view[%c0, %c0, %c20, %64] : memref<1x1x80x68xf16, #gpu.address_space<workgroup>>
          %276 = memref.load %view[%c0, %c0, %c21, %64] : memref<1x1x80x68xf16, #gpu.address_space<workgroup>>
          %277 = memref.load %view[%c0, %c0, %c22, %64] : memref<1x1x80x68xf16, #gpu.address_space<workgroup>>
          %278 = memref.load %view[%c0, %c0, %c23, %64] : memref<1x1x80x68xf16, #gpu.address_space<workgroup>>
          %279 = memref.load %view[%c0, %c0, %c24, %64] : memref<1x1x80x68xf16, #gpu.address_space<workgroup>>
          %280 = memref.load %view[%c0, %c0, %c25, %64] : memref<1x1x80x68xf16, #gpu.address_space<workgroup>>
          %281 = memref.load %view[%c0, %c0, %c26, %64] : memref<1x1x80x68xf16, #gpu.address_space<workgroup>>
          %282 = memref.load %view[%c0, %c0, %c27, %64] : memref<1x1x80x68xf16, #gpu.address_space<workgroup>>
          %283 = memref.load %view[%c0, %c0, %c28, %64] : memref<1x1x80x68xf16, #gpu.address_space<workgroup>>
          %284 = memref.load %view[%c0, %c0, %c29, %64] : memref<1x1x80x68xf16, #gpu.address_space<workgroup>>
          %285 = memref.load %view[%c0, %c0, %c30, %64] : memref<1x1x80x68xf16, #gpu.address_space<workgroup>>
          %286 = memref.load %view[%c0, %c0, %c31, %64] : memref<1x1x80x68xf16, #gpu.address_space<workgroup>>
          %287 = memref.load %view[%c0, %c0, %c32, %64] : memref<1x1x80x68xf16, #gpu.address_space<workgroup>>
          %288 = memref.load %view[%c0, %c0, %c33, %64] : memref<1x1x80x68xf16, #gpu.address_space<workgroup>>
          %289 = memref.load %view[%c0, %c0, %c34, %64] : memref<1x1x80x68xf16, #gpu.address_space<workgroup>>
          %290 = memref.load %view[%c0, %c0, %c35, %64] : memref<1x1x80x68xf16, #gpu.address_space<workgroup>>
          %291 = memref.load %view[%c0, %c0, %c36, %64] : memref<1x1x80x68xf16, #gpu.address_space<workgroup>>
          %292 = memref.load %view[%c0, %c0, %c37, %64] : memref<1x1x80x68xf16, #gpu.address_space<workgroup>>
          %293 = memref.load %view[%c0, %c0, %c38, %64] : memref<1x1x80x68xf16, #gpu.address_space<workgroup>>
          %294 = memref.load %view[%c0, %c0, %c39, %64] : memref<1x1x80x68xf16, #gpu.address_space<workgroup>>
          %295 = memref.load %view[%c0, %c0, %c40, %64] : memref<1x1x80x68xf16, #gpu.address_space<workgroup>>
          %296 = memref.load %view[%c0, %c0, %c41, %64] : memref<1x1x80x68xf16, #gpu.address_space<workgroup>>
          %297 = memref.load %view[%c0, %c0, %c42, %64] : memref<1x1x80x68xf16, #gpu.address_space<workgroup>>
          %298 = memref.load %view[%c0, %c0, %c43, %64] : memref<1x1x80x68xf16, #gpu.address_space<workgroup>>
          %299 = memref.load %view[%c0, %c0, %c44, %64] : memref<1x1x80x68xf16, #gpu.address_space<workgroup>>
          %300 = memref.load %view[%c0, %c0, %c45, %64] : memref<1x1x80x68xf16, #gpu.address_space<workgroup>>
          %301 = memref.load %view[%c0, %c0, %c46, %64] : memref<1x1x80x68xf16, #gpu.address_space<workgroup>>
          %302 = memref.load %view[%c0, %c0, %c47, %64] : memref<1x1x80x68xf16, #gpu.address_space<workgroup>>
          %303 = memref.load %view[%c0, %c0, %c48, %64] : memref<1x1x80x68xf16, #gpu.address_space<workgroup>>
          %304 = memref.load %view[%c0, %c0, %c49, %64] : memref<1x1x80x68xf16, #gpu.address_space<workgroup>>
          %305 = memref.load %view[%c0, %c0, %c50, %64] : memref<1x1x80x68xf16, #gpu.address_space<workgroup>>
          %306 = memref.load %view[%c0, %c0, %c51, %64] : memref<1x1x80x68xf16, #gpu.address_space<workgroup>>
          %307 = memref.load %view[%c0, %c0, %c52, %64] : memref<1x1x80x68xf16, #gpu.address_space<workgroup>>
          %308 = memref.load %view[%c0, %c0, %c53, %64] : memref<1x1x80x68xf16, #gpu.address_space<workgroup>>
          %309 = memref.load %view[%c0, %c0, %c54, %64] : memref<1x1x80x68xf16, #gpu.address_space<workgroup>>
          %310 = memref.load %view[%c0, %c0, %c55, %64] : memref<1x1x80x68xf16, #gpu.address_space<workgroup>>
          %311 = memref.load %view[%c0, %c0, %c56, %64] : memref<1x1x80x68xf16, #gpu.address_space<workgroup>>
          %312 = memref.load %view[%c0, %c0, %c57, %64] : memref<1x1x80x68xf16, #gpu.address_space<workgroup>>
          %313 = memref.load %view[%c0, %c0, %c58, %64] : memref<1x1x80x68xf16, #gpu.address_space<workgroup>>
          %314 = memref.load %view[%c0, %c0, %c59, %64] : memref<1x1x80x68xf16, #gpu.address_space<workgroup>>
          %315 = memref.load %view[%c0, %c0, %c60, %64] : memref<1x1x80x68xf16, #gpu.address_space<workgroup>>
          %316 = memref.load %view[%c0, %c0, %c61, %64] : memref<1x1x80x68xf16, #gpu.address_space<workgroup>>
          %317 = memref.load %view[%c0, %c0, %c62, %64] : memref<1x1x80x68xf16, #gpu.address_space<workgroup>>
          %318 = memref.load %view[%c0, %c0, %c63, %64] : memref<1x1x80x68xf16, #gpu.address_space<workgroup>>
          %319 = memref.load %view[%c0, %c0, %c64, %64] : memref<1x1x80x68xf16, #gpu.address_space<workgroup>>
          %320 = memref.load %view[%c0, %c0, %c65, %64] : memref<1x1x80x68xf16, #gpu.address_space<workgroup>>
          %321 = memref.load %view[%c0, %c0, %c66, %64] : memref<1x1x80x68xf16, #gpu.address_space<workgroup>>
          %322 = memref.load %view[%c0, %c0, %c67, %64] : memref<1x1x80x68xf16, #gpu.address_space<workgroup>>
          %323 = memref.load %view[%c0, %c0, %c68, %64] : memref<1x1x80x68xf16, #gpu.address_space<workgroup>>
          %324 = memref.load %view[%c0, %c0, %c69, %64] : memref<1x1x80x68xf16, #gpu.address_space<workgroup>>
          %325 = memref.load %view[%c0, %c0, %c70, %64] : memref<1x1x80x68xf16, #gpu.address_space<workgroup>>
          %326 = memref.load %view[%c0, %c0, %c71, %64] : memref<1x1x80x68xf16, #gpu.address_space<workgroup>>
          %327 = memref.load %view[%c0, %c0, %c72, %64] : memref<1x1x80x68xf16, #gpu.address_space<workgroup>>
          %328 = memref.load %view[%c0, %c0, %c73, %64] : memref<1x1x80x68xf16, #gpu.address_space<workgroup>>
          %329 = memref.load %view[%c0, %c0, %c74, %64] : memref<1x1x80x68xf16, #gpu.address_space<workgroup>>
          %330 = memref.load %view[%c0, %c0, %c75, %64] : memref<1x1x80x68xf16, #gpu.address_space<workgroup>>
          %331 = memref.load %view[%c0, %c0, %c76, %64] : memref<1x1x80x68xf16, #gpu.address_space<workgroup>>
          %332 = memref.load %view[%c0, %c0, %c77, %64] : memref<1x1x80x68xf16, #gpu.address_space<workgroup>>
          %333 = memref.load %view[%c0, %c0, %c78, %64] : memref<1x1x80x68xf16, #gpu.address_space<workgroup>>
          %334 = memref.load %view[%c0, %c0, %c79, %64] : memref<1x1x80x68xf16, #gpu.address_space<workgroup>>
          %335 = vector.load %view_7[%c0, %c0, %64, %c0] : memref<1x1x64x84xf16, #gpu.address_space<workgroup>>, vector<4xf16>
          %336 = vector.load %view_7[%c0, %c0, %64, %c4] : memref<1x1x64x84xf16, #gpu.address_space<workgroup>>, vector<4xf16>
          %337 = vector.load %view_7[%c0, %c0, %64, %c8] : memref<1x1x64x84xf16, #gpu.address_space<workgroup>>, vector<4xf16>
          %338 = vector.load %view_7[%c0, %c0, %64, %c12] : memref<1x1x64x84xf16, #gpu.address_space<workgroup>>, vector<4xf16>
          %339 = vector.load %view_7[%c0, %c0, %64, %c16] : memref<1x1x64x84xf16, #gpu.address_space<workgroup>>, vector<4xf16>
          %340 = vector.load %view_7[%c0, %c0, %64, %c20] : memref<1x1x64x84xf16, #gpu.address_space<workgroup>>, vector<4xf16>
          %341 = vector.load %view_7[%c0, %c0, %64, %c24] : memref<1x1x64x84xf16, #gpu.address_space<workgroup>>, vector<4xf16>
          %342 = vector.load %view_7[%c0, %c0, %64, %c28] : memref<1x1x64x84xf16, #gpu.address_space<workgroup>>, vector<4xf16>
          %343 = vector.load %view_7[%c0, %c0, %64, %c32] : memref<1x1x64x84xf16, #gpu.address_space<workgroup>>, vector<4xf16>
          %344 = vector.load %view_7[%c0, %c0, %64, %c36] : memref<1x1x64x84xf16, #gpu.address_space<workgroup>>, vector<4xf16>
          %345 = vector.load %view_7[%c0, %c0, %64, %c40] : memref<1x1x64x84xf16, #gpu.address_space<workgroup>>, vector<4xf16>
          %346 = vector.load %view_7[%c0, %c0, %64, %c44] : memref<1x1x64x84xf16, #gpu.address_space<workgroup>>, vector<4xf16>
          %347 = vector.load %view_7[%c0, %c0, %64, %c48] : memref<1x1x64x84xf16, #gpu.address_space<workgroup>>, vector<4xf16>
          %348 = vector.load %view_7[%c0, %c0, %64, %c52] : memref<1x1x64x84xf16, #gpu.address_space<workgroup>>, vector<4xf16>
          %349 = vector.load %view_7[%c0, %c0, %64, %c56] : memref<1x1x64x84xf16, #gpu.address_space<workgroup>>, vector<4xf16>
          %350 = vector.load %view_7[%c0, %c0, %64, %c60] : memref<1x1x64x84xf16, #gpu.address_space<workgroup>>, vector<4xf16>
          %351 = vector.load %view_7[%c0, %c0, %64, %c64] : memref<1x1x64x84xf16, #gpu.address_space<workgroup>>, vector<4xf16>
          %352 = vector.load %view_7[%c0, %c0, %64, %c68] : memref<1x1x64x84xf16, #gpu.address_space<workgroup>>, vector<4xf16>
          %353 = vector.load %view_7[%c0, %c0, %64, %c72] : memref<1x1x64x84xf16, #gpu.address_space<workgroup>>, vector<4xf16>
          %354 = vector.load %view_7[%c0, %c0, %64, %c76] : memref<1x1x64x84xf16, #gpu.address_space<workgroup>>, vector<4xf16>
          %355 = arith.extf %335 : vector<4xf16> to vector<4xf32>
          %356 = arith.mulf %355, %65 : vector<4xf32>
          %357 = vector.extract %356[0] : f32 from vector<4xf32>
          %358 = vector.extract %356[1] : f32 from vector<4xf32>
          %359 = arith.addf %357, %358 : f32
          %360 = vector.extract %356[2] : f32 from vector<4xf32>
          %361 = arith.addf %359, %360 : f32
          %362 = vector.extract %356[3] : f32 from vector<4xf32>
          %363 = arith.addf %361, %362 : f32
          %364 = vector.broadcast %363 : f32 to vector<1xf32>
          %365 = arith.addf %364, %cst_4 : vector<1xf32>
          %366 = arith.extf %336 : vector<4xf16> to vector<4xf32>
          %367 = arith.mulf %366, %66 : vector<4xf32>
          %368 = vector.extract %367[0] : f32 from vector<4xf32>
          %369 = vector.extract %367[1] : f32 from vector<4xf32>
          %370 = arith.addf %368, %369 : f32
          %371 = vector.extract %367[2] : f32 from vector<4xf32>
          %372 = arith.addf %370, %371 : f32
          %373 = vector.extract %367[3] : f32 from vector<4xf32>
          %374 = arith.addf %372, %373 : f32
          %375 = vector.broadcast %374 : f32 to vector<1xf32>
          %376 = arith.addf %375, %365 : vector<1xf32>
          %377 = arith.extf %337 : vector<4xf16> to vector<4xf32>
          %378 = arith.mulf %377, %67 : vector<4xf32>
          %379 = vector.extract %378[0] : f32 from vector<4xf32>
          %380 = vector.extract %378[1] : f32 from vector<4xf32>
          %381 = arith.addf %379, %380 : f32
          %382 = vector.extract %378[2] : f32 from vector<4xf32>
          %383 = arith.addf %381, %382 : f32
          %384 = vector.extract %378[3] : f32 from vector<4xf32>
          %385 = arith.addf %383, %384 : f32
          %386 = vector.broadcast %385 : f32 to vector<1xf32>
          %387 = arith.addf %386, %376 : vector<1xf32>
          %388 = arith.extf %338 : vector<4xf16> to vector<4xf32>
          %389 = arith.mulf %388, %68 : vector<4xf32>
          %390 = vector.extract %389[0] : f32 from vector<4xf32>
          %391 = vector.extract %389[1] : f32 from vector<4xf32>
          %392 = arith.addf %390, %391 : f32
          %393 = vector.extract %389[2] : f32 from vector<4xf32>
          %394 = arith.addf %392, %393 : f32
          %395 = vector.extract %389[3] : f32 from vector<4xf32>
          %396 = arith.addf %394, %395 : f32
          %397 = vector.broadcast %396 : f32 to vector<1xf32>
          %398 = arith.addf %397, %387 : vector<1xf32>
          %399 = arith.extf %339 : vector<4xf16> to vector<4xf32>
          %400 = arith.mulf %399, %69 : vector<4xf32>
          %401 = vector.extract %400[0] : f32 from vector<4xf32>
          %402 = vector.extract %400[1] : f32 from vector<4xf32>
          %403 = arith.addf %401, %402 : f32
          %404 = vector.extract %400[2] : f32 from vector<4xf32>
          %405 = arith.addf %403, %404 : f32
          %406 = vector.extract %400[3] : f32 from vector<4xf32>
          %407 = arith.addf %405, %406 : f32
          %408 = vector.broadcast %407 : f32 to vector<1xf32>
          %409 = arith.addf %408, %398 : vector<1xf32>
          %410 = arith.extf %340 : vector<4xf16> to vector<4xf32>
          %411 = arith.mulf %410, %70 : vector<4xf32>
          %412 = vector.extract %411[0] : f32 from vector<4xf32>
          %413 = vector.extract %411[1] : f32 from vector<4xf32>
          %414 = arith.addf %412, %413 : f32
          %415 = vector.extract %411[2] : f32 from vector<4xf32>
          %416 = arith.addf %414, %415 : f32
          %417 = vector.extract %411[3] : f32 from vector<4xf32>
          %418 = arith.addf %416, %417 : f32
          %419 = vector.broadcast %418 : f32 to vector<1xf32>
          %420 = arith.addf %419, %409 : vector<1xf32>
          %421 = arith.extf %341 : vector<4xf16> to vector<4xf32>
          %422 = arith.mulf %421, %71 : vector<4xf32>
          %423 = vector.extract %422[0] : f32 from vector<4xf32>
          %424 = vector.extract %422[1] : f32 from vector<4xf32>
          %425 = arith.addf %423, %424 : f32
          %426 = vector.extract %422[2] : f32 from vector<4xf32>
          %427 = arith.addf %425, %426 : f32
          %428 = vector.extract %422[3] : f32 from vector<4xf32>
          %429 = arith.addf %427, %428 : f32
          %430 = vector.broadcast %429 : f32 to vector<1xf32>
          %431 = arith.addf %430, %420 : vector<1xf32>
          %432 = arith.extf %342 : vector<4xf16> to vector<4xf32>
          %433 = arith.mulf %432, %72 : vector<4xf32>
          %434 = vector.extract %433[0] : f32 from vector<4xf32>
          %435 = vector.extract %433[1] : f32 from vector<4xf32>
          %436 = arith.addf %434, %435 : f32
          %437 = vector.extract %433[2] : f32 from vector<4xf32>
          %438 = arith.addf %436, %437 : f32
          %439 = vector.extract %433[3] : f32 from vector<4xf32>
          %440 = arith.addf %438, %439 : f32
          %441 = vector.broadcast %440 : f32 to vector<1xf32>
          %442 = arith.addf %441, %431 : vector<1xf32>
          %443 = arith.extf %343 : vector<4xf16> to vector<4xf32>
          %444 = arith.mulf %443, %73 : vector<4xf32>
          %445 = vector.extract %444[0] : f32 from vector<4xf32>
          %446 = vector.extract %444[1] : f32 from vector<4xf32>
          %447 = arith.addf %445, %446 : f32
          %448 = vector.extract %444[2] : f32 from vector<4xf32>
          %449 = arith.addf %447, %448 : f32
          %450 = vector.extract %444[3] : f32 from vector<4xf32>
          %451 = arith.addf %449, %450 : f32
          %452 = vector.broadcast %451 : f32 to vector<1xf32>
          %453 = arith.addf %452, %442 : vector<1xf32>
          %454 = arith.extf %344 : vector<4xf16> to vector<4xf32>
          %455 = arith.mulf %454, %74 : vector<4xf32>
          %456 = vector.extract %455[0] : f32 from vector<4xf32>
          %457 = vector.extract %455[1] : f32 from vector<4xf32>
          %458 = arith.addf %456, %457 : f32
          %459 = vector.extract %455[2] : f32 from vector<4xf32>
          %460 = arith.addf %458, %459 : f32
          %461 = vector.extract %455[3] : f32 from vector<4xf32>
          %462 = arith.addf %460, %461 : f32
          %463 = vector.broadcast %462 : f32 to vector<1xf32>
          %464 = arith.addf %463, %453 : vector<1xf32>
          %465 = arith.extf %345 : vector<4xf16> to vector<4xf32>
          %466 = arith.mulf %465, %75 : vector<4xf32>
          %467 = vector.extract %466[0] : f32 from vector<4xf32>
          %468 = vector.extract %466[1] : f32 from vector<4xf32>
          %469 = arith.addf %467, %468 : f32
          %470 = vector.extract %466[2] : f32 from vector<4xf32>
          %471 = arith.addf %469, %470 : f32
          %472 = vector.extract %466[3] : f32 from vector<4xf32>
          %473 = arith.addf %471, %472 : f32
          %474 = vector.broadcast %473 : f32 to vector<1xf32>
          %475 = arith.addf %474, %464 : vector<1xf32>
          %476 = arith.extf %346 : vector<4xf16> to vector<4xf32>
          %477 = arith.mulf %476, %76 : vector<4xf32>
          %478 = vector.extract %477[0] : f32 from vector<4xf32>
          %479 = vector.extract %477[1] : f32 from vector<4xf32>
          %480 = arith.addf %478, %479 : f32
          %481 = vector.extract %477[2] : f32 from vector<4xf32>
          %482 = arith.addf %480, %481 : f32
          %483 = vector.extract %477[3] : f32 from vector<4xf32>
          %484 = arith.addf %482, %483 : f32
          %485 = vector.broadcast %484 : f32 to vector<1xf32>
          %486 = arith.addf %485, %475 : vector<1xf32>
          %487 = arith.extf %347 : vector<4xf16> to vector<4xf32>
          %488 = arith.mulf %487, %77 : vector<4xf32>
          %489 = vector.extract %488[0] : f32 from vector<4xf32>
          %490 = vector.extract %488[1] : f32 from vector<4xf32>
          %491 = arith.addf %489, %490 : f32
          %492 = vector.extract %488[2] : f32 from vector<4xf32>
          %493 = arith.addf %491, %492 : f32
          %494 = vector.extract %488[3] : f32 from vector<4xf32>
          %495 = arith.addf %493, %494 : f32
          %496 = vector.broadcast %495 : f32 to vector<1xf32>
          %497 = arith.addf %496, %486 : vector<1xf32>
          %498 = arith.extf %348 : vector<4xf16> to vector<4xf32>
          %499 = arith.mulf %498, %78 : vector<4xf32>
          %500 = vector.extract %499[0] : f32 from vector<4xf32>
          %501 = vector.extract %499[1] : f32 from vector<4xf32>
          %502 = arith.addf %500, %501 : f32
          %503 = vector.extract %499[2] : f32 from vector<4xf32>
          %504 = arith.addf %502, %503 : f32
          %505 = vector.extract %499[3] : f32 from vector<4xf32>
          %506 = arith.addf %504, %505 : f32
          %507 = vector.broadcast %506 : f32 to vector<1xf32>
          %508 = arith.addf %507, %497 : vector<1xf32>
          %509 = arith.extf %349 : vector<4xf16> to vector<4xf32>
          %510 = arith.mulf %509, %79 : vector<4xf32>
          %511 = vector.extract %510[0] : f32 from vector<4xf32>
          %512 = vector.extract %510[1] : f32 from vector<4xf32>
          %513 = arith.addf %511, %512 : f32
          %514 = vector.extract %510[2] : f32 from vector<4xf32>
          %515 = arith.addf %513, %514 : f32
          %516 = vector.extract %510[3] : f32 from vector<4xf32>
          %517 = arith.addf %515, %516 : f32
          %518 = vector.broadcast %517 : f32 to vector<1xf32>
          %519 = arith.addf %518, %508 : vector<1xf32>
          %520 = arith.extf %350 : vector<4xf16> to vector<4xf32>
          %521 = arith.mulf %520, %80 : vector<4xf32>
          %522 = vector.extract %521[0] : f32 from vector<4xf32>
          %523 = vector.extract %521[1] : f32 from vector<4xf32>
          %524 = arith.addf %522, %523 : f32
          %525 = vector.extract %521[2] : f32 from vector<4xf32>
          %526 = arith.addf %524, %525 : f32
          %527 = vector.extract %521[3] : f32 from vector<4xf32>
          %528 = arith.addf %526, %527 : f32
          %529 = vector.broadcast %528 : f32 to vector<1xf32>
          %530 = arith.addf %529, %519 : vector<1xf32>
          %531 = arith.extf %351 : vector<4xf16> to vector<4xf32>
          %532 = arith.mulf %531, %81 : vector<4xf32>
          %533 = vector.extract %532[0] : f32 from vector<4xf32>
          %534 = vector.extract %532[1] : f32 from vector<4xf32>
          %535 = arith.addf %533, %534 : f32
          %536 = vector.extract %532[2] : f32 from vector<4xf32>
          %537 = arith.addf %535, %536 : f32
          %538 = vector.extract %532[3] : f32 from vector<4xf32>
          %539 = arith.addf %537, %538 : f32
          %540 = vector.broadcast %539 : f32 to vector<1xf32>
          %541 = arith.addf %540, %530 : vector<1xf32>
          %542 = arith.extf %352 : vector<4xf16> to vector<4xf32>
          %543 = arith.mulf %542, %82 : vector<4xf32>
          %544 = vector.extract %543[0] : f32 from vector<4xf32>
          %545 = vector.extract %543[1] : f32 from vector<4xf32>
          %546 = arith.addf %544, %545 : f32
          %547 = vector.extract %543[2] : f32 from vector<4xf32>
          %548 = arith.addf %546, %547 : f32
          %549 = vector.extract %543[3] : f32 from vector<4xf32>
          %550 = arith.addf %548, %549 : f32
          %551 = vector.broadcast %550 : f32 to vector<1xf32>
          %552 = arith.addf %551, %541 : vector<1xf32>
          %553 = arith.extf %353 : vector<4xf16> to vector<4xf32>
          %554 = arith.mulf %553, %83 : vector<4xf32>
          %555 = vector.extract %554[0] : f32 from vector<4xf32>
          %556 = vector.extract %554[1] : f32 from vector<4xf32>
          %557 = arith.addf %555, %556 : f32
          %558 = vector.extract %554[2] : f32 from vector<4xf32>
          %559 = arith.addf %557, %558 : f32
          %560 = vector.extract %554[3] : f32 from vector<4xf32>
          %561 = arith.addf %559, %560 : f32
          %562 = vector.broadcast %561 : f32 to vector<1xf32>
          %563 = arith.addf %562, %552 : vector<1xf32>
          %564 = arith.extf %354 : vector<4xf16> to vector<4xf32>
          %565 = arith.mulf %564, %84 : vector<4xf32>
          %566 = vector.extract %565[0] : f32 from vector<4xf32>
          %567 = vector.extract %565[1] : f32 from vector<4xf32>
          %568 = arith.addf %566, %567 : f32
          %569 = vector.extract %565[2] : f32 from vector<4xf32>
          %570 = arith.addf %568, %569 : f32
          %571 = vector.extract %565[3] : f32 from vector<4xf32>
          %572 = arith.addf %570, %571 : f32
          %573 = vector.broadcast %572 : f32 to vector<1xf32>
          %574 = arith.addf %573, %563 : vector<1xf32>
          %575 = arith.mulf %574, %cst_6 : vector<1xf32>
          %576 = vector.splat %89 : vector<1xindex>
          %577 = arith.cmpi slt, %576, %86 : vector<1xindex>
          %578 = arith.select %577, %cst_4, %cst_5 : vector<1xi1>, vector<1xf32>
          %579 = arith.addf %575, %578 : vector<1xf32>
          %580 = vector.extract %579[0] : f32 from vector<1xf32>
          %581 = vector.splat %580 : vector<1xf32>
          %shuffleResult, %valid = gpu.shuffle  xor %581, %c1_i32, %c64_i32 : vector<1xf32>
          %582 = arith.maximumf %581, %shuffleResult : vector<1xf32>
          %shuffleResult_8, %valid_9 = gpu.shuffle  xor %582, %c2_i32, %c64_i32 : vector<1xf32>
          %583 = arith.maximumf %582, %shuffleResult_8 : vector<1xf32>
          %shuffleResult_10, %valid_11 = gpu.shuffle  xor %583, %c4_i32, %c64_i32 : vector<1xf32>
          %584 = arith.maximumf %583, %shuffleResult_10 : vector<1xf32>
          %shuffleResult_12, %valid_13 = gpu.shuffle  xor %584, %c8_i32, %c64_i32 : vector<1xf32>
          %585 = arith.maximumf %584, %shuffleResult_12 : vector<1xf32>
          %shuffleResult_14, %valid_15 = gpu.shuffle  xor %585, %c16_i32, %c64_i32 : vector<1xf32>
          %586 = arith.maximumf %585, %shuffleResult_14 : vector<1xf32>
          %shuffleResult_16, %valid_17 = gpu.shuffle  xor %586, %c32_i32, %c64_i32 : vector<1xf32>
          %587 = arith.maximumf %586, %shuffleResult_16 : vector<1xf32>
          %588 = arith.maximumf %arg11, %587 : vector<1xf32>
          %589 = arith.subf %arg11, %588 : vector<1xf32>
          %590 = math.exp2 %589 : vector<1xf32>
          %591 = arith.subf %579, %588 : vector<1xf32>
          %592 = math.exp2 %591 : vector<1xf32>
          %593 = arith.mulf %arg12, %590 : vector<1xf32>
          %594 = vector.extract %592[0] : f32 from vector<1xf32>
          %595 = vector.splat %594 : vector<1xf32>
          %shuffleResult_18, %valid_19 = gpu.shuffle  xor %595, %c1_i32, %c64_i32 : vector<1xf32>
          %596 = arith.addf %595, %shuffleResult_18 : vector<1xf32>
          %shuffleResult_20, %valid_21 = gpu.shuffle  xor %596, %c2_i32, %c64_i32 : vector<1xf32>
          %597 = arith.addf %596, %shuffleResult_20 : vector<1xf32>
          %shuffleResult_22, %valid_23 = gpu.shuffle  xor %597, %c4_i32, %c64_i32 : vector<1xf32>
          %598 = arith.addf %597, %shuffleResult_22 : vector<1xf32>
          %shuffleResult_24, %valid_25 = gpu.shuffle  xor %598, %c8_i32, %c64_i32 : vector<1xf32>
          %599 = arith.addf %598, %shuffleResult_24 : vector<1xf32>
          %shuffleResult_26, %valid_27 = gpu.shuffle  xor %599, %c16_i32, %c64_i32 : vector<1xf32>
          %600 = arith.addf %599, %shuffleResult_26 : vector<1xf32>
          %shuffleResult_28, %valid_29 = gpu.shuffle  xor %600, %c32_i32, %c64_i32 : vector<1xf32>
          %601 = arith.addf %600, %shuffleResult_28 : vector<1xf32>
          %602 = arith.addf %593, %601 : vector<1xf32>
          %603 = arith.truncf %592 : vector<1xf32> to vector<1xf16>
          %604 = arith.mulf %arg13, %590 : vector<1xf32>
          %605 = arith.mulf %arg14, %590 : vector<1xf32>
          %606 = arith.mulf %arg15, %590 : vector<1xf32>
          %607 = arith.mulf %arg16, %590 : vector<1xf32>
          %608 = arith.mulf %arg17, %590 : vector<1xf32>
          %609 = arith.mulf %arg18, %590 : vector<1xf32>
          %610 = arith.mulf %arg19, %590 : vector<1xf32>
          %611 = arith.mulf %arg20, %590 : vector<1xf32>
          %612 = arith.mulf %arg21, %590 : vector<1xf32>
          %613 = arith.mulf %arg22, %590 : vector<1xf32>
          %614 = arith.mulf %arg23, %590 : vector<1xf32>
          %615 = arith.mulf %arg24, %590 : vector<1xf32>
          %616 = arith.mulf %arg25, %590 : vector<1xf32>
          %617 = arith.mulf %arg26, %590 : vector<1xf32>
          %618 = arith.mulf %arg27, %590 : vector<1xf32>
          %619 = arith.mulf %arg28, %590 : vector<1xf32>
          %620 = arith.mulf %arg29, %590 : vector<1xf32>
          %621 = arith.mulf %arg30, %590 : vector<1xf32>
          %622 = arith.mulf %arg31, %590 : vector<1xf32>
          %623 = arith.mulf %arg32, %590 : vector<1xf32>
          %624 = arith.mulf %arg33, %590 : vector<1xf32>
          %625 = arith.mulf %arg34, %590 : vector<1xf32>
          %626 = arith.mulf %arg35, %590 : vector<1xf32>
          %627 = arith.mulf %arg36, %590 : vector<1xf32>
          %628 = arith.mulf %arg37, %590 : vector<1xf32>
          %629 = arith.mulf %arg38, %590 : vector<1xf32>
          %630 = arith.mulf %arg39, %590 : vector<1xf32>
          %631 = arith.mulf %arg40, %590 : vector<1xf32>
          %632 = arith.mulf %arg41, %590 : vector<1xf32>
          %633 = arith.mulf %arg42, %590 : vector<1xf32>
          %634 = arith.mulf %arg43, %590 : vector<1xf32>
          %635 = arith.mulf %arg44, %590 : vector<1xf32>
          %636 = arith.mulf %arg45, %590 : vector<1xf32>
          %637 = arith.mulf %arg46, %590 : vector<1xf32>
          %638 = arith.mulf %arg47, %590 : vector<1xf32>
          %639 = arith.mulf %arg48, %590 : vector<1xf32>
          %640 = arith.mulf %arg49, %590 : vector<1xf32>
          %641 = arith.mulf %arg50, %590 : vector<1xf32>
          %642 = arith.mulf %arg51, %590 : vector<1xf32>
          %643 = arith.mulf %arg52, %590 : vector<1xf32>
          %644 = arith.mulf %arg53, %590 : vector<1xf32>
          %645 = arith.mulf %arg54, %590 : vector<1xf32>
          %646 = arith.mulf %arg55, %590 : vector<1xf32>
          %647 = arith.mulf %arg56, %590 : vector<1xf32>
          %648 = arith.mulf %arg57, %590 : vector<1xf32>
          %649 = arith.mulf %arg58, %590 : vector<1xf32>
          %650 = arith.mulf %arg59, %590 : vector<1xf32>
          %651 = arith.mulf %arg60, %590 : vector<1xf32>
          %652 = arith.mulf %arg61, %590 : vector<1xf32>
          %653 = arith.mulf %arg62, %590 : vector<1xf32>
          %654 = arith.mulf %arg63, %590 : vector<1xf32>
          %655 = arith.mulf %arg64, %590 : vector<1xf32>
          %656 = arith.mulf %arg65, %590 : vector<1xf32>
          %657 = arith.mulf %arg66, %590 : vector<1xf32>
          %658 = arith.mulf %arg67, %590 : vector<1xf32>
          %659 = arith.mulf %arg68, %590 : vector<1xf32>
          %660 = arith.mulf %arg69, %590 : vector<1xf32>
          %661 = arith.mulf %arg70, %590 : vector<1xf32>
          %662 = arith.mulf %arg71, %590 : vector<1xf32>
          %663 = arith.mulf %arg72, %590 : vector<1xf32>
          %664 = arith.mulf %arg73, %590 : vector<1xf32>
          %665 = arith.mulf %arg74, %590 : vector<1xf32>
          %666 = arith.mulf %arg75, %590 : vector<1xf32>
          %667 = arith.mulf %arg76, %590 : vector<1xf32>
          %668 = arith.mulf %arg77, %590 : vector<1xf32>
          %669 = arith.mulf %arg78, %590 : vector<1xf32>
          %670 = arith.mulf %arg79, %590 : vector<1xf32>
          %671 = arith.mulf %arg80, %590 : vector<1xf32>
          %672 = arith.mulf %arg81, %590 : vector<1xf32>
          %673 = arith.mulf %arg82, %590 : vector<1xf32>
          %674 = arith.mulf %arg83, %590 : vector<1xf32>
          %675 = arith.mulf %arg84, %590 : vector<1xf32>
          %676 = arith.mulf %arg85, %590 : vector<1xf32>
          %677 = arith.mulf %arg86, %590 : vector<1xf32>
          %678 = arith.mulf %arg87, %590 : vector<1xf32>
          %679 = arith.mulf %arg88, %590 : vector<1xf32>
          %680 = arith.mulf %arg89, %590 : vector<1xf32>
          %681 = arith.mulf %arg90, %590 : vector<1xf32>
          %682 = arith.mulf %arg91, %590 : vector<1xf32>
          %683 = arith.mulf %arg92, %590 : vector<1xf32>
          %684 = arith.extf %255 : f16 to f32
          %685 = vector.extract %603[0] : f16 from vector<1xf16>
          %686 = arith.extf %685 : f16 to f32
          %687 = arith.mulf %684, %686 : f32
          %688 = vector.splat %687 : vector<1xf32>
          %shuffleResult_30, %valid_31 = gpu.shuffle  xor %688, %c1_i32, %c64_i32 : vector<1xf32>
          %689 = arith.addf %688, %shuffleResult_30 : vector<1xf32>
          %shuffleResult_32, %valid_33 = gpu.shuffle  xor %689, %c2_i32, %c64_i32 : vector<1xf32>
          %690 = arith.addf %689, %shuffleResult_32 : vector<1xf32>
          %shuffleResult_34, %valid_35 = gpu.shuffle  xor %690, %c4_i32, %c64_i32 : vector<1xf32>
          %691 = arith.addf %690, %shuffleResult_34 : vector<1xf32>
          %shuffleResult_36, %valid_37 = gpu.shuffle  xor %691, %c8_i32, %c64_i32 : vector<1xf32>
          %692 = arith.addf %691, %shuffleResult_36 : vector<1xf32>
          %shuffleResult_38, %valid_39 = gpu.shuffle  xor %692, %c16_i32, %c64_i32 : vector<1xf32>
          %693 = arith.addf %692, %shuffleResult_38 : vector<1xf32>
          %shuffleResult_40, %valid_41 = gpu.shuffle  xor %693, %c32_i32, %c64_i32 : vector<1xf32>
          %694 = arith.addf %693, %shuffleResult_40 : vector<1xf32>
          %695 = arith.addf %694, %604 : vector<1xf32>
          %696 = arith.extf %256 : f16 to f32
          %697 = arith.mulf %696, %686 : f32
          %698 = vector.splat %697 : vector<1xf32>
          %shuffleResult_42, %valid_43 = gpu.shuffle  xor %698, %c1_i32, %c64_i32 : vector<1xf32>
          %699 = arith.addf %698, %shuffleResult_42 : vector<1xf32>
          %shuffleResult_44, %valid_45 = gpu.shuffle  xor %699, %c2_i32, %c64_i32 : vector<1xf32>
          %700 = arith.addf %699, %shuffleResult_44 : vector<1xf32>
          %shuffleResult_46, %valid_47 = gpu.shuffle  xor %700, %c4_i32, %c64_i32 : vector<1xf32>
          %701 = arith.addf %700, %shuffleResult_46 : vector<1xf32>
          %shuffleResult_48, %valid_49 = gpu.shuffle  xor %701, %c8_i32, %c64_i32 : vector<1xf32>
          %702 = arith.addf %701, %shuffleResult_48 : vector<1xf32>
          %shuffleResult_50, %valid_51 = gpu.shuffle  xor %702, %c16_i32, %c64_i32 : vector<1xf32>
          %703 = arith.addf %702, %shuffleResult_50 : vector<1xf32>
          %shuffleResult_52, %valid_53 = gpu.shuffle  xor %703, %c32_i32, %c64_i32 : vector<1xf32>
          %704 = arith.addf %703, %shuffleResult_52 : vector<1xf32>
          %705 = arith.addf %704, %605 : vector<1xf32>
          %706 = arith.extf %257 : f16 to f32
          %707 = arith.mulf %706, %686 : f32
          %708 = vector.splat %707 : vector<1xf32>
          %shuffleResult_54, %valid_55 = gpu.shuffle  xor %708, %c1_i32, %c64_i32 : vector<1xf32>
          %709 = arith.addf %708, %shuffleResult_54 : vector<1xf32>
          %shuffleResult_56, %valid_57 = gpu.shuffle  xor %709, %c2_i32, %c64_i32 : vector<1xf32>
          %710 = arith.addf %709, %shuffleResult_56 : vector<1xf32>
          %shuffleResult_58, %valid_59 = gpu.shuffle  xor %710, %c4_i32, %c64_i32 : vector<1xf32>
          %711 = arith.addf %710, %shuffleResult_58 : vector<1xf32>
          %shuffleResult_60, %valid_61 = gpu.shuffle  xor %711, %c8_i32, %c64_i32 : vector<1xf32>
          %712 = arith.addf %711, %shuffleResult_60 : vector<1xf32>
          %shuffleResult_62, %valid_63 = gpu.shuffle  xor %712, %c16_i32, %c64_i32 : vector<1xf32>
          %713 = arith.addf %712, %shuffleResult_62 : vector<1xf32>
          %shuffleResult_64, %valid_65 = gpu.shuffle  xor %713, %c32_i32, %c64_i32 : vector<1xf32>
          %714 = arith.addf %713, %shuffleResult_64 : vector<1xf32>
          %715 = arith.addf %714, %606 : vector<1xf32>
          %716 = arith.extf %258 : f16 to f32
          %717 = arith.mulf %716, %686 : f32
          %718 = vector.splat %717 : vector<1xf32>
          %shuffleResult_66, %valid_67 = gpu.shuffle  xor %718, %c1_i32, %c64_i32 : vector<1xf32>
          %719 = arith.addf %718, %shuffleResult_66 : vector<1xf32>
          %shuffleResult_68, %valid_69 = gpu.shuffle  xor %719, %c2_i32, %c64_i32 : vector<1xf32>
          %720 = arith.addf %719, %shuffleResult_68 : vector<1xf32>
          %shuffleResult_70, %valid_71 = gpu.shuffle  xor %720, %c4_i32, %c64_i32 : vector<1xf32>
          %721 = arith.addf %720, %shuffleResult_70 : vector<1xf32>
          %shuffleResult_72, %valid_73 = gpu.shuffle  xor %721, %c8_i32, %c64_i32 : vector<1xf32>
          %722 = arith.addf %721, %shuffleResult_72 : vector<1xf32>
          %shuffleResult_74, %valid_75 = gpu.shuffle  xor %722, %c16_i32, %c64_i32 : vector<1xf32>
          %723 = arith.addf %722, %shuffleResult_74 : vector<1xf32>
          %shuffleResult_76, %valid_77 = gpu.shuffle  xor %723, %c32_i32, %c64_i32 : vector<1xf32>
          %724 = arith.addf %723, %shuffleResult_76 : vector<1xf32>
          %725 = arith.addf %724, %607 : vector<1xf32>
          %726 = arith.extf %259 : f16 to f32
          %727 = arith.mulf %726, %686 : f32
          %728 = vector.splat %727 : vector<1xf32>
          %shuffleResult_78, %valid_79 = gpu.shuffle  xor %728, %c1_i32, %c64_i32 : vector<1xf32>
          %729 = arith.addf %728, %shuffleResult_78 : vector<1xf32>
          %shuffleResult_80, %valid_81 = gpu.shuffle  xor %729, %c2_i32, %c64_i32 : vector<1xf32>
          %730 = arith.addf %729, %shuffleResult_80 : vector<1xf32>
          %shuffleResult_82, %valid_83 = gpu.shuffle  xor %730, %c4_i32, %c64_i32 : vector<1xf32>
          %731 = arith.addf %730, %shuffleResult_82 : vector<1xf32>
          %shuffleResult_84, %valid_85 = gpu.shuffle  xor %731, %c8_i32, %c64_i32 : vector<1xf32>
          %732 = arith.addf %731, %shuffleResult_84 : vector<1xf32>
          %shuffleResult_86, %valid_87 = gpu.shuffle  xor %732, %c16_i32, %c64_i32 : vector<1xf32>
          %733 = arith.addf %732, %shuffleResult_86 : vector<1xf32>
          %shuffleResult_88, %valid_89 = gpu.shuffle  xor %733, %c32_i32, %c64_i32 : vector<1xf32>
          %734 = arith.addf %733, %shuffleResult_88 : vector<1xf32>
          %735 = arith.addf %734, %608 : vector<1xf32>
          %736 = arith.extf %260 : f16 to f32
          %737 = arith.mulf %736, %686 : f32
          %738 = vector.splat %737 : vector<1xf32>
          %shuffleResult_90, %valid_91 = gpu.shuffle  xor %738, %c1_i32, %c64_i32 : vector<1xf32>
          %739 = arith.addf %738, %shuffleResult_90 : vector<1xf32>
          %shuffleResult_92, %valid_93 = gpu.shuffle  xor %739, %c2_i32, %c64_i32 : vector<1xf32>
          %740 = arith.addf %739, %shuffleResult_92 : vector<1xf32>
          %shuffleResult_94, %valid_95 = gpu.shuffle  xor %740, %c4_i32, %c64_i32 : vector<1xf32>
          %741 = arith.addf %740, %shuffleResult_94 : vector<1xf32>
          %shuffleResult_96, %valid_97 = gpu.shuffle  xor %741, %c8_i32, %c64_i32 : vector<1xf32>
          %742 = arith.addf %741, %shuffleResult_96 : vector<1xf32>
          %shuffleResult_98, %valid_99 = gpu.shuffle  xor %742, %c16_i32, %c64_i32 : vector<1xf32>
          %743 = arith.addf %742, %shuffleResult_98 : vector<1xf32>
          %shuffleResult_100, %valid_101 = gpu.shuffle  xor %743, %c32_i32, %c64_i32 : vector<1xf32>
          %744 = arith.addf %743, %shuffleResult_100 : vector<1xf32>
          %745 = arith.addf %744, %609 : vector<1xf32>
          %746 = arith.extf %261 : f16 to f32
          %747 = arith.mulf %746, %686 : f32
          %748 = vector.splat %747 : vector<1xf32>
          %shuffleResult_102, %valid_103 = gpu.shuffle  xor %748, %c1_i32, %c64_i32 : vector<1xf32>
          %749 = arith.addf %748, %shuffleResult_102 : vector<1xf32>
          %shuffleResult_104, %valid_105 = gpu.shuffle  xor %749, %c2_i32, %c64_i32 : vector<1xf32>
          %750 = arith.addf %749, %shuffleResult_104 : vector<1xf32>
          %shuffleResult_106, %valid_107 = gpu.shuffle  xor %750, %c4_i32, %c64_i32 : vector<1xf32>
          %751 = arith.addf %750, %shuffleResult_106 : vector<1xf32>
          %shuffleResult_108, %valid_109 = gpu.shuffle  xor %751, %c8_i32, %c64_i32 : vector<1xf32>
          %752 = arith.addf %751, %shuffleResult_108 : vector<1xf32>
          %shuffleResult_110, %valid_111 = gpu.shuffle  xor %752, %c16_i32, %c64_i32 : vector<1xf32>
          %753 = arith.addf %752, %shuffleResult_110 : vector<1xf32>
          %shuffleResult_112, %valid_113 = gpu.shuffle  xor %753, %c32_i32, %c64_i32 : vector<1xf32>
          %754 = arith.addf %753, %shuffleResult_112 : vector<1xf32>
          %755 = arith.addf %754, %610 : vector<1xf32>
          %756 = arith.extf %262 : f16 to f32
          %757 = arith.mulf %756, %686 : f32
          %758 = vector.splat %757 : vector<1xf32>
          %shuffleResult_114, %valid_115 = gpu.shuffle  xor %758, %c1_i32, %c64_i32 : vector<1xf32>
          %759 = arith.addf %758, %shuffleResult_114 : vector<1xf32>
          %shuffleResult_116, %valid_117 = gpu.shuffle  xor %759, %c2_i32, %c64_i32 : vector<1xf32>
          %760 = arith.addf %759, %shuffleResult_116 : vector<1xf32>
          %shuffleResult_118, %valid_119 = gpu.shuffle  xor %760, %c4_i32, %c64_i32 : vector<1xf32>
          %761 = arith.addf %760, %shuffleResult_118 : vector<1xf32>
          %shuffleResult_120, %valid_121 = gpu.shuffle  xor %761, %c8_i32, %c64_i32 : vector<1xf32>
          %762 = arith.addf %761, %shuffleResult_120 : vector<1xf32>
          %shuffleResult_122, %valid_123 = gpu.shuffle  xor %762, %c16_i32, %c64_i32 : vector<1xf32>
          %763 = arith.addf %762, %shuffleResult_122 : vector<1xf32>
          %shuffleResult_124, %valid_125 = gpu.shuffle  xor %763, %c32_i32, %c64_i32 : vector<1xf32>
          %764 = arith.addf %763, %shuffleResult_124 : vector<1xf32>
          %765 = arith.addf %764, %611 : vector<1xf32>
          %766 = arith.extf %263 : f16 to f32
          %767 = arith.mulf %766, %686 : f32
          %768 = vector.splat %767 : vector<1xf32>
          %shuffleResult_126, %valid_127 = gpu.shuffle  xor %768, %c1_i32, %c64_i32 : vector<1xf32>
          %769 = arith.addf %768, %shuffleResult_126 : vector<1xf32>
          %shuffleResult_128, %valid_129 = gpu.shuffle  xor %769, %c2_i32, %c64_i32 : vector<1xf32>
          %770 = arith.addf %769, %shuffleResult_128 : vector<1xf32>
          %shuffleResult_130, %valid_131 = gpu.shuffle  xor %770, %c4_i32, %c64_i32 : vector<1xf32>
          %771 = arith.addf %770, %shuffleResult_130 : vector<1xf32>
          %shuffleResult_132, %valid_133 = gpu.shuffle  xor %771, %c8_i32, %c64_i32 : vector<1xf32>
          %772 = arith.addf %771, %shuffleResult_132 : vector<1xf32>
          %shuffleResult_134, %valid_135 = gpu.shuffle  xor %772, %c16_i32, %c64_i32 : vector<1xf32>
          %773 = arith.addf %772, %shuffleResult_134 : vector<1xf32>
          %shuffleResult_136, %valid_137 = gpu.shuffle  xor %773, %c32_i32, %c64_i32 : vector<1xf32>
          %774 = arith.addf %773, %shuffleResult_136 : vector<1xf32>
          %775 = arith.addf %774, %612 : vector<1xf32>
          %776 = arith.extf %264 : f16 to f32
          %777 = arith.mulf %776, %686 : f32
          %778 = vector.splat %777 : vector<1xf32>
          %shuffleResult_138, %valid_139 = gpu.shuffle  xor %778, %c1_i32, %c64_i32 : vector<1xf32>
          %779 = arith.addf %778, %shuffleResult_138 : vector<1xf32>
          %shuffleResult_140, %valid_141 = gpu.shuffle  xor %779, %c2_i32, %c64_i32 : vector<1xf32>
          %780 = arith.addf %779, %shuffleResult_140 : vector<1xf32>
          %shuffleResult_142, %valid_143 = gpu.shuffle  xor %780, %c4_i32, %c64_i32 : vector<1xf32>
          %781 = arith.addf %780, %shuffleResult_142 : vector<1xf32>
          %shuffleResult_144, %valid_145 = gpu.shuffle  xor %781, %c8_i32, %c64_i32 : vector<1xf32>
          %782 = arith.addf %781, %shuffleResult_144 : vector<1xf32>
          %shuffleResult_146, %valid_147 = gpu.shuffle  xor %782, %c16_i32, %c64_i32 : vector<1xf32>
          %783 = arith.addf %782, %shuffleResult_146 : vector<1xf32>
          %shuffleResult_148, %valid_149 = gpu.shuffle  xor %783, %c32_i32, %c64_i32 : vector<1xf32>
          %784 = arith.addf %783, %shuffleResult_148 : vector<1xf32>
          %785 = arith.addf %784, %613 : vector<1xf32>
          %786 = arith.extf %265 : f16 to f32
          %787 = arith.mulf %786, %686 : f32
          %788 = vector.splat %787 : vector<1xf32>
          %shuffleResult_150, %valid_151 = gpu.shuffle  xor %788, %c1_i32, %c64_i32 : vector<1xf32>
          %789 = arith.addf %788, %shuffleResult_150 : vector<1xf32>
          %shuffleResult_152, %valid_153 = gpu.shuffle  xor %789, %c2_i32, %c64_i32 : vector<1xf32>
          %790 = arith.addf %789, %shuffleResult_152 : vector<1xf32>
          %shuffleResult_154, %valid_155 = gpu.shuffle  xor %790, %c4_i32, %c64_i32 : vector<1xf32>
          %791 = arith.addf %790, %shuffleResult_154 : vector<1xf32>
          %shuffleResult_156, %valid_157 = gpu.shuffle  xor %791, %c8_i32, %c64_i32 : vector<1xf32>
          %792 = arith.addf %791, %shuffleResult_156 : vector<1xf32>
          %shuffleResult_158, %valid_159 = gpu.shuffle  xor %792, %c16_i32, %c64_i32 : vector<1xf32>
          %793 = arith.addf %792, %shuffleResult_158 : vector<1xf32>
          %shuffleResult_160, %valid_161 = gpu.shuffle  xor %793, %c32_i32, %c64_i32 : vector<1xf32>
          %794 = arith.addf %793, %shuffleResult_160 : vector<1xf32>
          %795 = arith.addf %794, %614 : vector<1xf32>
          %796 = arith.extf %266 : f16 to f32
          %797 = arith.mulf %796, %686 : f32
          %798 = vector.splat %797 : vector<1xf32>
          %shuffleResult_162, %valid_163 = gpu.shuffle  xor %798, %c1_i32, %c64_i32 : vector<1xf32>
          %799 = arith.addf %798, %shuffleResult_162 : vector<1xf32>
          %shuffleResult_164, %valid_165 = gpu.shuffle  xor %799, %c2_i32, %c64_i32 : vector<1xf32>
          %800 = arith.addf %799, %shuffleResult_164 : vector<1xf32>
          %shuffleResult_166, %valid_167 = gpu.shuffle  xor %800, %c4_i32, %c64_i32 : vector<1xf32>
          %801 = arith.addf %800, %shuffleResult_166 : vector<1xf32>
          %shuffleResult_168, %valid_169 = gpu.shuffle  xor %801, %c8_i32, %c64_i32 : vector<1xf32>
          %802 = arith.addf %801, %shuffleResult_168 : vector<1xf32>
          %shuffleResult_170, %valid_171 = gpu.shuffle  xor %802, %c16_i32, %c64_i32 : vector<1xf32>
          %803 = arith.addf %802, %shuffleResult_170 : vector<1xf32>
          %shuffleResult_172, %valid_173 = gpu.shuffle  xor %803, %c32_i32, %c64_i32 : vector<1xf32>
          %804 = arith.addf %803, %shuffleResult_172 : vector<1xf32>
          %805 = arith.addf %804, %615 : vector<1xf32>
          %806 = arith.extf %267 : f16 to f32
          %807 = arith.mulf %806, %686 : f32
          %808 = vector.splat %807 : vector<1xf32>
          %shuffleResult_174, %valid_175 = gpu.shuffle  xor %808, %c1_i32, %c64_i32 : vector<1xf32>
          %809 = arith.addf %808, %shuffleResult_174 : vector<1xf32>
          %shuffleResult_176, %valid_177 = gpu.shuffle  xor %809, %c2_i32, %c64_i32 : vector<1xf32>
          %810 = arith.addf %809, %shuffleResult_176 : vector<1xf32>
          %shuffleResult_178, %valid_179 = gpu.shuffle  xor %810, %c4_i32, %c64_i32 : vector<1xf32>
          %811 = arith.addf %810, %shuffleResult_178 : vector<1xf32>
          %shuffleResult_180, %valid_181 = gpu.shuffle  xor %811, %c8_i32, %c64_i32 : vector<1xf32>
          %812 = arith.addf %811, %shuffleResult_180 : vector<1xf32>
          %shuffleResult_182, %valid_183 = gpu.shuffle  xor %812, %c16_i32, %c64_i32 : vector<1xf32>
          %813 = arith.addf %812, %shuffleResult_182 : vector<1xf32>
          %shuffleResult_184, %valid_185 = gpu.shuffle  xor %813, %c32_i32, %c64_i32 : vector<1xf32>
          %814 = arith.addf %813, %shuffleResult_184 : vector<1xf32>
          %815 = arith.addf %814, %616 : vector<1xf32>
          %816 = arith.extf %268 : f16 to f32
          %817 = arith.mulf %816, %686 : f32
          %818 = vector.splat %817 : vector<1xf32>
          %shuffleResult_186, %valid_187 = gpu.shuffle  xor %818, %c1_i32, %c64_i32 : vector<1xf32>
          %819 = arith.addf %818, %shuffleResult_186 : vector<1xf32>
          %shuffleResult_188, %valid_189 = gpu.shuffle  xor %819, %c2_i32, %c64_i32 : vector<1xf32>
          %820 = arith.addf %819, %shuffleResult_188 : vector<1xf32>
          %shuffleResult_190, %valid_191 = gpu.shuffle  xor %820, %c4_i32, %c64_i32 : vector<1xf32>
          %821 = arith.addf %820, %shuffleResult_190 : vector<1xf32>
          %shuffleResult_192, %valid_193 = gpu.shuffle  xor %821, %c8_i32, %c64_i32 : vector<1xf32>
          %822 = arith.addf %821, %shuffleResult_192 : vector<1xf32>
          %shuffleResult_194, %valid_195 = gpu.shuffle  xor %822, %c16_i32, %c64_i32 : vector<1xf32>
          %823 = arith.addf %822, %shuffleResult_194 : vector<1xf32>
          %shuffleResult_196, %valid_197 = gpu.shuffle  xor %823, %c32_i32, %c64_i32 : vector<1xf32>
          %824 = arith.addf %823, %shuffleResult_196 : vector<1xf32>
          %825 = arith.addf %824, %617 : vector<1xf32>
          %826 = arith.extf %269 : f16 to f32
          %827 = arith.mulf %826, %686 : f32
          %828 = vector.splat %827 : vector<1xf32>
          %shuffleResult_198, %valid_199 = gpu.shuffle  xor %828, %c1_i32, %c64_i32 : vector<1xf32>
          %829 = arith.addf %828, %shuffleResult_198 : vector<1xf32>
          %shuffleResult_200, %valid_201 = gpu.shuffle  xor %829, %c2_i32, %c64_i32 : vector<1xf32>
          %830 = arith.addf %829, %shuffleResult_200 : vector<1xf32>
          %shuffleResult_202, %valid_203 = gpu.shuffle  xor %830, %c4_i32, %c64_i32 : vector<1xf32>
          %831 = arith.addf %830, %shuffleResult_202 : vector<1xf32>
          %shuffleResult_204, %valid_205 = gpu.shuffle  xor %831, %c8_i32, %c64_i32 : vector<1xf32>
          %832 = arith.addf %831, %shuffleResult_204 : vector<1xf32>
          %shuffleResult_206, %valid_207 = gpu.shuffle  xor %832, %c16_i32, %c64_i32 : vector<1xf32>
          %833 = arith.addf %832, %shuffleResult_206 : vector<1xf32>
          %shuffleResult_208, %valid_209 = gpu.shuffle  xor %833, %c32_i32, %c64_i32 : vector<1xf32>
          %834 = arith.addf %833, %shuffleResult_208 : vector<1xf32>
          %835 = arith.addf %834, %618 : vector<1xf32>
          %836 = arith.extf %270 : f16 to f32
          %837 = arith.mulf %836, %686 : f32
          %838 = vector.splat %837 : vector<1xf32>
          %shuffleResult_210, %valid_211 = gpu.shuffle  xor %838, %c1_i32, %c64_i32 : vector<1xf32>
          %839 = arith.addf %838, %shuffleResult_210 : vector<1xf32>
          %shuffleResult_212, %valid_213 = gpu.shuffle  xor %839, %c2_i32, %c64_i32 : vector<1xf32>
          %840 = arith.addf %839, %shuffleResult_212 : vector<1xf32>
          %shuffleResult_214, %valid_215 = gpu.shuffle  xor %840, %c4_i32, %c64_i32 : vector<1xf32>
          %841 = arith.addf %840, %shuffleResult_214 : vector<1xf32>
          %shuffleResult_216, %valid_217 = gpu.shuffle  xor %841, %c8_i32, %c64_i32 : vector<1xf32>
          %842 = arith.addf %841, %shuffleResult_216 : vector<1xf32>
          %shuffleResult_218, %valid_219 = gpu.shuffle  xor %842, %c16_i32, %c64_i32 : vector<1xf32>
          %843 = arith.addf %842, %shuffleResult_218 : vector<1xf32>
          %shuffleResult_220, %valid_221 = gpu.shuffle  xor %843, %c32_i32, %c64_i32 : vector<1xf32>
          %844 = arith.addf %843, %shuffleResult_220 : vector<1xf32>
          %845 = arith.addf %844, %619 : vector<1xf32>
          %846 = arith.extf %271 : f16 to f32
          %847 = arith.mulf %846, %686 : f32
          %848 = vector.splat %847 : vector<1xf32>
          %shuffleResult_222, %valid_223 = gpu.shuffle  xor %848, %c1_i32, %c64_i32 : vector<1xf32>
          %849 = arith.addf %848, %shuffleResult_222 : vector<1xf32>
          %shuffleResult_224, %valid_225 = gpu.shuffle  xor %849, %c2_i32, %c64_i32 : vector<1xf32>
          %850 = arith.addf %849, %shuffleResult_224 : vector<1xf32>
          %shuffleResult_226, %valid_227 = gpu.shuffle  xor %850, %c4_i32, %c64_i32 : vector<1xf32>
          %851 = arith.addf %850, %shuffleResult_226 : vector<1xf32>
          %shuffleResult_228, %valid_229 = gpu.shuffle  xor %851, %c8_i32, %c64_i32 : vector<1xf32>
          %852 = arith.addf %851, %shuffleResult_228 : vector<1xf32>
          %shuffleResult_230, %valid_231 = gpu.shuffle  xor %852, %c16_i32, %c64_i32 : vector<1xf32>
          %853 = arith.addf %852, %shuffleResult_230 : vector<1xf32>
          %shuffleResult_232, %valid_233 = gpu.shuffle  xor %853, %c32_i32, %c64_i32 : vector<1xf32>
          %854 = arith.addf %853, %shuffleResult_232 : vector<1xf32>
          %855 = arith.addf %854, %620 : vector<1xf32>
          %856 = arith.extf %272 : f16 to f32
          %857 = arith.mulf %856, %686 : f32
          %858 = vector.splat %857 : vector<1xf32>
          %shuffleResult_234, %valid_235 = gpu.shuffle  xor %858, %c1_i32, %c64_i32 : vector<1xf32>
          %859 = arith.addf %858, %shuffleResult_234 : vector<1xf32>
          %shuffleResult_236, %valid_237 = gpu.shuffle  xor %859, %c2_i32, %c64_i32 : vector<1xf32>
          %860 = arith.addf %859, %shuffleResult_236 : vector<1xf32>
          %shuffleResult_238, %valid_239 = gpu.shuffle  xor %860, %c4_i32, %c64_i32 : vector<1xf32>
          %861 = arith.addf %860, %shuffleResult_238 : vector<1xf32>
          %shuffleResult_240, %valid_241 = gpu.shuffle  xor %861, %c8_i32, %c64_i32 : vector<1xf32>
          %862 = arith.addf %861, %shuffleResult_240 : vector<1xf32>
          %shuffleResult_242, %valid_243 = gpu.shuffle  xor %862, %c16_i32, %c64_i32 : vector<1xf32>
          %863 = arith.addf %862, %shuffleResult_242 : vector<1xf32>
          %shuffleResult_244, %valid_245 = gpu.shuffle  xor %863, %c32_i32, %c64_i32 : vector<1xf32>
          %864 = arith.addf %863, %shuffleResult_244 : vector<1xf32>
          %865 = arith.addf %864, %621 : vector<1xf32>
          %866 = arith.extf %273 : f16 to f32
          %867 = arith.mulf %866, %686 : f32
          %868 = vector.splat %867 : vector<1xf32>
          %shuffleResult_246, %valid_247 = gpu.shuffle  xor %868, %c1_i32, %c64_i32 : vector<1xf32>
          %869 = arith.addf %868, %shuffleResult_246 : vector<1xf32>
          %shuffleResult_248, %valid_249 = gpu.shuffle  xor %869, %c2_i32, %c64_i32 : vector<1xf32>
          %870 = arith.addf %869, %shuffleResult_248 : vector<1xf32>
          %shuffleResult_250, %valid_251 = gpu.shuffle  xor %870, %c4_i32, %c64_i32 : vector<1xf32>
          %871 = arith.addf %870, %shuffleResult_250 : vector<1xf32>
          %shuffleResult_252, %valid_253 = gpu.shuffle  xor %871, %c8_i32, %c64_i32 : vector<1xf32>
          %872 = arith.addf %871, %shuffleResult_252 : vector<1xf32>
          %shuffleResult_254, %valid_255 = gpu.shuffle  xor %872, %c16_i32, %c64_i32 : vector<1xf32>
          %873 = arith.addf %872, %shuffleResult_254 : vector<1xf32>
          %shuffleResult_256, %valid_257 = gpu.shuffle  xor %873, %c32_i32, %c64_i32 : vector<1xf32>
          %874 = arith.addf %873, %shuffleResult_256 : vector<1xf32>
          %875 = arith.addf %874, %622 : vector<1xf32>
          %876 = arith.extf %274 : f16 to f32
          %877 = arith.mulf %876, %686 : f32
          %878 = vector.splat %877 : vector<1xf32>
          %shuffleResult_258, %valid_259 = gpu.shuffle  xor %878, %c1_i32, %c64_i32 : vector<1xf32>
          %879 = arith.addf %878, %shuffleResult_258 : vector<1xf32>
          %shuffleResult_260, %valid_261 = gpu.shuffle  xor %879, %c2_i32, %c64_i32 : vector<1xf32>
          %880 = arith.addf %879, %shuffleResult_260 : vector<1xf32>
          %shuffleResult_262, %valid_263 = gpu.shuffle  xor %880, %c4_i32, %c64_i32 : vector<1xf32>
          %881 = arith.addf %880, %shuffleResult_262 : vector<1xf32>
          %shuffleResult_264, %valid_265 = gpu.shuffle  xor %881, %c8_i32, %c64_i32 : vector<1xf32>
          %882 = arith.addf %881, %shuffleResult_264 : vector<1xf32>
          %shuffleResult_266, %valid_267 = gpu.shuffle  xor %882, %c16_i32, %c64_i32 : vector<1xf32>
          %883 = arith.addf %882, %shuffleResult_266 : vector<1xf32>
          %shuffleResult_268, %valid_269 = gpu.shuffle  xor %883, %c32_i32, %c64_i32 : vector<1xf32>
          %884 = arith.addf %883, %shuffleResult_268 : vector<1xf32>
          %885 = arith.addf %884, %623 : vector<1xf32>
          %886 = arith.extf %275 : f16 to f32
          %887 = arith.mulf %886, %686 : f32
          %888 = vector.splat %887 : vector<1xf32>
          %shuffleResult_270, %valid_271 = gpu.shuffle  xor %888, %c1_i32, %c64_i32 : vector<1xf32>
          %889 = arith.addf %888, %shuffleResult_270 : vector<1xf32>
          %shuffleResult_272, %valid_273 = gpu.shuffle  xor %889, %c2_i32, %c64_i32 : vector<1xf32>
          %890 = arith.addf %889, %shuffleResult_272 : vector<1xf32>
          %shuffleResult_274, %valid_275 = gpu.shuffle  xor %890, %c4_i32, %c64_i32 : vector<1xf32>
          %891 = arith.addf %890, %shuffleResult_274 : vector<1xf32>
          %shuffleResult_276, %valid_277 = gpu.shuffle  xor %891, %c8_i32, %c64_i32 : vector<1xf32>
          %892 = arith.addf %891, %shuffleResult_276 : vector<1xf32>
          %shuffleResult_278, %valid_279 = gpu.shuffle  xor %892, %c16_i32, %c64_i32 : vector<1xf32>
          %893 = arith.addf %892, %shuffleResult_278 : vector<1xf32>
          %shuffleResult_280, %valid_281 = gpu.shuffle  xor %893, %c32_i32, %c64_i32 : vector<1xf32>
          %894 = arith.addf %893, %shuffleResult_280 : vector<1xf32>
          %895 = arith.addf %894, %624 : vector<1xf32>
          %896 = arith.extf %276 : f16 to f32
          %897 = arith.mulf %896, %686 : f32
          %898 = vector.splat %897 : vector<1xf32>
          %shuffleResult_282, %valid_283 = gpu.shuffle  xor %898, %c1_i32, %c64_i32 : vector<1xf32>
          %899 = arith.addf %898, %shuffleResult_282 : vector<1xf32>
          %shuffleResult_284, %valid_285 = gpu.shuffle  xor %899, %c2_i32, %c64_i32 : vector<1xf32>
          %900 = arith.addf %899, %shuffleResult_284 : vector<1xf32>
          %shuffleResult_286, %valid_287 = gpu.shuffle  xor %900, %c4_i32, %c64_i32 : vector<1xf32>
          %901 = arith.addf %900, %shuffleResult_286 : vector<1xf32>
          %shuffleResult_288, %valid_289 = gpu.shuffle  xor %901, %c8_i32, %c64_i32 : vector<1xf32>
          %902 = arith.addf %901, %shuffleResult_288 : vector<1xf32>
          %shuffleResult_290, %valid_291 = gpu.shuffle  xor %902, %c16_i32, %c64_i32 : vector<1xf32>
          %903 = arith.addf %902, %shuffleResult_290 : vector<1xf32>
          %shuffleResult_292, %valid_293 = gpu.shuffle  xor %903, %c32_i32, %c64_i32 : vector<1xf32>
          %904 = arith.addf %903, %shuffleResult_292 : vector<1xf32>
          %905 = arith.addf %904, %625 : vector<1xf32>
          %906 = arith.extf %277 : f16 to f32
          %907 = arith.mulf %906, %686 : f32
          %908 = vector.splat %907 : vector<1xf32>
          %shuffleResult_294, %valid_295 = gpu.shuffle  xor %908, %c1_i32, %c64_i32 : vector<1xf32>
          %909 = arith.addf %908, %shuffleResult_294 : vector<1xf32>
          %shuffleResult_296, %valid_297 = gpu.shuffle  xor %909, %c2_i32, %c64_i32 : vector<1xf32>
          %910 = arith.addf %909, %shuffleResult_296 : vector<1xf32>
          %shuffleResult_298, %valid_299 = gpu.shuffle  xor %910, %c4_i32, %c64_i32 : vector<1xf32>
          %911 = arith.addf %910, %shuffleResult_298 : vector<1xf32>
          %shuffleResult_300, %valid_301 = gpu.shuffle  xor %911, %c8_i32, %c64_i32 : vector<1xf32>
          %912 = arith.addf %911, %shuffleResult_300 : vector<1xf32>
          %shuffleResult_302, %valid_303 = gpu.shuffle  xor %912, %c16_i32, %c64_i32 : vector<1xf32>
          %913 = arith.addf %912, %shuffleResult_302 : vector<1xf32>
          %shuffleResult_304, %valid_305 = gpu.shuffle  xor %913, %c32_i32, %c64_i32 : vector<1xf32>
          %914 = arith.addf %913, %shuffleResult_304 : vector<1xf32>
          %915 = arith.addf %914, %626 : vector<1xf32>
          %916 = arith.extf %278 : f16 to f32
          %917 = arith.mulf %916, %686 : f32
          %918 = vector.splat %917 : vector<1xf32>
          %shuffleResult_306, %valid_307 = gpu.shuffle  xor %918, %c1_i32, %c64_i32 : vector<1xf32>
          %919 = arith.addf %918, %shuffleResult_306 : vector<1xf32>
          %shuffleResult_308, %valid_309 = gpu.shuffle  xor %919, %c2_i32, %c64_i32 : vector<1xf32>
          %920 = arith.addf %919, %shuffleResult_308 : vector<1xf32>
          %shuffleResult_310, %valid_311 = gpu.shuffle  xor %920, %c4_i32, %c64_i32 : vector<1xf32>
          %921 = arith.addf %920, %shuffleResult_310 : vector<1xf32>
          %shuffleResult_312, %valid_313 = gpu.shuffle  xor %921, %c8_i32, %c64_i32 : vector<1xf32>
          %922 = arith.addf %921, %shuffleResult_312 : vector<1xf32>
          %shuffleResult_314, %valid_315 = gpu.shuffle  xor %922, %c16_i32, %c64_i32 : vector<1xf32>
          %923 = arith.addf %922, %shuffleResult_314 : vector<1xf32>
          %shuffleResult_316, %valid_317 = gpu.shuffle  xor %923, %c32_i32, %c64_i32 : vector<1xf32>
          %924 = arith.addf %923, %shuffleResult_316 : vector<1xf32>
          %925 = arith.addf %924, %627 : vector<1xf32>
          %926 = arith.extf %279 : f16 to f32
          %927 = arith.mulf %926, %686 : f32
          %928 = vector.splat %927 : vector<1xf32>
          %shuffleResult_318, %valid_319 = gpu.shuffle  xor %928, %c1_i32, %c64_i32 : vector<1xf32>
          %929 = arith.addf %928, %shuffleResult_318 : vector<1xf32>
          %shuffleResult_320, %valid_321 = gpu.shuffle  xor %929, %c2_i32, %c64_i32 : vector<1xf32>
          %930 = arith.addf %929, %shuffleResult_320 : vector<1xf32>
          %shuffleResult_322, %valid_323 = gpu.shuffle  xor %930, %c4_i32, %c64_i32 : vector<1xf32>
          %931 = arith.addf %930, %shuffleResult_322 : vector<1xf32>
          %shuffleResult_324, %valid_325 = gpu.shuffle  xor %931, %c8_i32, %c64_i32 : vector<1xf32>
          %932 = arith.addf %931, %shuffleResult_324 : vector<1xf32>
          %shuffleResult_326, %valid_327 = gpu.shuffle  xor %932, %c16_i32, %c64_i32 : vector<1xf32>
          %933 = arith.addf %932, %shuffleResult_326 : vector<1xf32>
          %shuffleResult_328, %valid_329 = gpu.shuffle  xor %933, %c32_i32, %c64_i32 : vector<1xf32>
          %934 = arith.addf %933, %shuffleResult_328 : vector<1xf32>
          %935 = arith.addf %934, %628 : vector<1xf32>
          %936 = arith.extf %280 : f16 to f32
          %937 = arith.mulf %936, %686 : f32
          %938 = vector.splat %937 : vector<1xf32>
          %shuffleResult_330, %valid_331 = gpu.shuffle  xor %938, %c1_i32, %c64_i32 : vector<1xf32>
          %939 = arith.addf %938, %shuffleResult_330 : vector<1xf32>
          %shuffleResult_332, %valid_333 = gpu.shuffle  xor %939, %c2_i32, %c64_i32 : vector<1xf32>
          %940 = arith.addf %939, %shuffleResult_332 : vector<1xf32>
          %shuffleResult_334, %valid_335 = gpu.shuffle  xor %940, %c4_i32, %c64_i32 : vector<1xf32>
          %941 = arith.addf %940, %shuffleResult_334 : vector<1xf32>
          %shuffleResult_336, %valid_337 = gpu.shuffle  xor %941, %c8_i32, %c64_i32 : vector<1xf32>
          %942 = arith.addf %941, %shuffleResult_336 : vector<1xf32>
          %shuffleResult_338, %valid_339 = gpu.shuffle  xor %942, %c16_i32, %c64_i32 : vector<1xf32>
          %943 = arith.addf %942, %shuffleResult_338 : vector<1xf32>
          %shuffleResult_340, %valid_341 = gpu.shuffle  xor %943, %c32_i32, %c64_i32 : vector<1xf32>
          %944 = arith.addf %943, %shuffleResult_340 : vector<1xf32>
          %945 = arith.addf %944, %629 : vector<1xf32>
          %946 = arith.extf %281 : f16 to f32
          %947 = arith.mulf %946, %686 : f32
          %948 = vector.splat %947 : vector<1xf32>
          %shuffleResult_342, %valid_343 = gpu.shuffle  xor %948, %c1_i32, %c64_i32 : vector<1xf32>
          %949 = arith.addf %948, %shuffleResult_342 : vector<1xf32>
          %shuffleResult_344, %valid_345 = gpu.shuffle  xor %949, %c2_i32, %c64_i32 : vector<1xf32>
          %950 = arith.addf %949, %shuffleResult_344 : vector<1xf32>
          %shuffleResult_346, %valid_347 = gpu.shuffle  xor %950, %c4_i32, %c64_i32 : vector<1xf32>
          %951 = arith.addf %950, %shuffleResult_346 : vector<1xf32>
          %shuffleResult_348, %valid_349 = gpu.shuffle  xor %951, %c8_i32, %c64_i32 : vector<1xf32>
          %952 = arith.addf %951, %shuffleResult_348 : vector<1xf32>
          %shuffleResult_350, %valid_351 = gpu.shuffle  xor %952, %c16_i32, %c64_i32 : vector<1xf32>
          %953 = arith.addf %952, %shuffleResult_350 : vector<1xf32>
          %shuffleResult_352, %valid_353 = gpu.shuffle  xor %953, %c32_i32, %c64_i32 : vector<1xf32>
          %954 = arith.addf %953, %shuffleResult_352 : vector<1xf32>
          %955 = arith.addf %954, %630 : vector<1xf32>
          %956 = arith.extf %282 : f16 to f32
          %957 = arith.mulf %956, %686 : f32
          %958 = vector.splat %957 : vector<1xf32>
          %shuffleResult_354, %valid_355 = gpu.shuffle  xor %958, %c1_i32, %c64_i32 : vector<1xf32>
          %959 = arith.addf %958, %shuffleResult_354 : vector<1xf32>
          %shuffleResult_356, %valid_357 = gpu.shuffle  xor %959, %c2_i32, %c64_i32 : vector<1xf32>
          %960 = arith.addf %959, %shuffleResult_356 : vector<1xf32>
          %shuffleResult_358, %valid_359 = gpu.shuffle  xor %960, %c4_i32, %c64_i32 : vector<1xf32>
          %961 = arith.addf %960, %shuffleResult_358 : vector<1xf32>
          %shuffleResult_360, %valid_361 = gpu.shuffle  xor %961, %c8_i32, %c64_i32 : vector<1xf32>
          %962 = arith.addf %961, %shuffleResult_360 : vector<1xf32>
          %shuffleResult_362, %valid_363 = gpu.shuffle  xor %962, %c16_i32, %c64_i32 : vector<1xf32>
          %963 = arith.addf %962, %shuffleResult_362 : vector<1xf32>
          %shuffleResult_364, %valid_365 = gpu.shuffle  xor %963, %c32_i32, %c64_i32 : vector<1xf32>
          %964 = arith.addf %963, %shuffleResult_364 : vector<1xf32>
          %965 = arith.addf %964, %631 : vector<1xf32>
          %966 = arith.extf %283 : f16 to f32
          %967 = arith.mulf %966, %686 : f32
          %968 = vector.splat %967 : vector<1xf32>
          %shuffleResult_366, %valid_367 = gpu.shuffle  xor %968, %c1_i32, %c64_i32 : vector<1xf32>
          %969 = arith.addf %968, %shuffleResult_366 : vector<1xf32>
          %shuffleResult_368, %valid_369 = gpu.shuffle  xor %969, %c2_i32, %c64_i32 : vector<1xf32>
          %970 = arith.addf %969, %shuffleResult_368 : vector<1xf32>
          %shuffleResult_370, %valid_371 = gpu.shuffle  xor %970, %c4_i32, %c64_i32 : vector<1xf32>
          %971 = arith.addf %970, %shuffleResult_370 : vector<1xf32>
          %shuffleResult_372, %valid_373 = gpu.shuffle  xor %971, %c8_i32, %c64_i32 : vector<1xf32>
          %972 = arith.addf %971, %shuffleResult_372 : vector<1xf32>
          %shuffleResult_374, %valid_375 = gpu.shuffle  xor %972, %c16_i32, %c64_i32 : vector<1xf32>
          %973 = arith.addf %972, %shuffleResult_374 : vector<1xf32>
          %shuffleResult_376, %valid_377 = gpu.shuffle  xor %973, %c32_i32, %c64_i32 : vector<1xf32>
          %974 = arith.addf %973, %shuffleResult_376 : vector<1xf32>
          %975 = arith.addf %974, %632 : vector<1xf32>
          %976 = arith.extf %284 : f16 to f32
          %977 = arith.mulf %976, %686 : f32
          %978 = vector.splat %977 : vector<1xf32>
          %shuffleResult_378, %valid_379 = gpu.shuffle  xor %978, %c1_i32, %c64_i32 : vector<1xf32>
          %979 = arith.addf %978, %shuffleResult_378 : vector<1xf32>
          %shuffleResult_380, %valid_381 = gpu.shuffle  xor %979, %c2_i32, %c64_i32 : vector<1xf32>
          %980 = arith.addf %979, %shuffleResult_380 : vector<1xf32>
          %shuffleResult_382, %valid_383 = gpu.shuffle  xor %980, %c4_i32, %c64_i32 : vector<1xf32>
          %981 = arith.addf %980, %shuffleResult_382 : vector<1xf32>
          %shuffleResult_384, %valid_385 = gpu.shuffle  xor %981, %c8_i32, %c64_i32 : vector<1xf32>
          %982 = arith.addf %981, %shuffleResult_384 : vector<1xf32>
          %shuffleResult_386, %valid_387 = gpu.shuffle  xor %982, %c16_i32, %c64_i32 : vector<1xf32>
          %983 = arith.addf %982, %shuffleResult_386 : vector<1xf32>
          %shuffleResult_388, %valid_389 = gpu.shuffle  xor %983, %c32_i32, %c64_i32 : vector<1xf32>
          %984 = arith.addf %983, %shuffleResult_388 : vector<1xf32>
          %985 = arith.addf %984, %633 : vector<1xf32>
          %986 = arith.extf %285 : f16 to f32
          %987 = arith.mulf %986, %686 : f32
          %988 = vector.splat %987 : vector<1xf32>
          %shuffleResult_390, %valid_391 = gpu.shuffle  xor %988, %c1_i32, %c64_i32 : vector<1xf32>
          %989 = arith.addf %988, %shuffleResult_390 : vector<1xf32>
          %shuffleResult_392, %valid_393 = gpu.shuffle  xor %989, %c2_i32, %c64_i32 : vector<1xf32>
          %990 = arith.addf %989, %shuffleResult_392 : vector<1xf32>
          %shuffleResult_394, %valid_395 = gpu.shuffle  xor %990, %c4_i32, %c64_i32 : vector<1xf32>
          %991 = arith.addf %990, %shuffleResult_394 : vector<1xf32>
          %shuffleResult_396, %valid_397 = gpu.shuffle  xor %991, %c8_i32, %c64_i32 : vector<1xf32>
          %992 = arith.addf %991, %shuffleResult_396 : vector<1xf32>
          %shuffleResult_398, %valid_399 = gpu.shuffle  xor %992, %c16_i32, %c64_i32 : vector<1xf32>
          %993 = arith.addf %992, %shuffleResult_398 : vector<1xf32>
          %shuffleResult_400, %valid_401 = gpu.shuffle  xor %993, %c32_i32, %c64_i32 : vector<1xf32>
          %994 = arith.addf %993, %shuffleResult_400 : vector<1xf32>
          %995 = arith.addf %994, %634 : vector<1xf32>
          %996 = arith.extf %286 : f16 to f32
          %997 = arith.mulf %996, %686 : f32
          %998 = vector.splat %997 : vector<1xf32>
          %shuffleResult_402, %valid_403 = gpu.shuffle  xor %998, %c1_i32, %c64_i32 : vector<1xf32>
          %999 = arith.addf %998, %shuffleResult_402 : vector<1xf32>
          %shuffleResult_404, %valid_405 = gpu.shuffle  xor %999, %c2_i32, %c64_i32 : vector<1xf32>
          %1000 = arith.addf %999, %shuffleResult_404 : vector<1xf32>
          %shuffleResult_406, %valid_407 = gpu.shuffle  xor %1000, %c4_i32, %c64_i32 : vector<1xf32>
          %1001 = arith.addf %1000, %shuffleResult_406 : vector<1xf32>
          %shuffleResult_408, %valid_409 = gpu.shuffle  xor %1001, %c8_i32, %c64_i32 : vector<1xf32>
          %1002 = arith.addf %1001, %shuffleResult_408 : vector<1xf32>
          %shuffleResult_410, %valid_411 = gpu.shuffle  xor %1002, %c16_i32, %c64_i32 : vector<1xf32>
          %1003 = arith.addf %1002, %shuffleResult_410 : vector<1xf32>
          %shuffleResult_412, %valid_413 = gpu.shuffle  xor %1003, %c32_i32, %c64_i32 : vector<1xf32>
          %1004 = arith.addf %1003, %shuffleResult_412 : vector<1xf32>
          %1005 = arith.addf %1004, %635 : vector<1xf32>
          %1006 = arith.extf %287 : f16 to f32
          %1007 = arith.mulf %1006, %686 : f32
          %1008 = vector.splat %1007 : vector<1xf32>
          %shuffleResult_414, %valid_415 = gpu.shuffle  xor %1008, %c1_i32, %c64_i32 : vector<1xf32>
          %1009 = arith.addf %1008, %shuffleResult_414 : vector<1xf32>
          %shuffleResult_416, %valid_417 = gpu.shuffle  xor %1009, %c2_i32, %c64_i32 : vector<1xf32>
          %1010 = arith.addf %1009, %shuffleResult_416 : vector<1xf32>
          %shuffleResult_418, %valid_419 = gpu.shuffle  xor %1010, %c4_i32, %c64_i32 : vector<1xf32>
          %1011 = arith.addf %1010, %shuffleResult_418 : vector<1xf32>
          %shuffleResult_420, %valid_421 = gpu.shuffle  xor %1011, %c8_i32, %c64_i32 : vector<1xf32>
          %1012 = arith.addf %1011, %shuffleResult_420 : vector<1xf32>
          %shuffleResult_422, %valid_423 = gpu.shuffle  xor %1012, %c16_i32, %c64_i32 : vector<1xf32>
          %1013 = arith.addf %1012, %shuffleResult_422 : vector<1xf32>
          %shuffleResult_424, %valid_425 = gpu.shuffle  xor %1013, %c32_i32, %c64_i32 : vector<1xf32>
          %1014 = arith.addf %1013, %shuffleResult_424 : vector<1xf32>
          %1015 = arith.addf %1014, %636 : vector<1xf32>
          %1016 = arith.extf %288 : f16 to f32
          %1017 = arith.mulf %1016, %686 : f32
          %1018 = vector.splat %1017 : vector<1xf32>
          %shuffleResult_426, %valid_427 = gpu.shuffle  xor %1018, %c1_i32, %c64_i32 : vector<1xf32>
          %1019 = arith.addf %1018, %shuffleResult_426 : vector<1xf32>
          %shuffleResult_428, %valid_429 = gpu.shuffle  xor %1019, %c2_i32, %c64_i32 : vector<1xf32>
          %1020 = arith.addf %1019, %shuffleResult_428 : vector<1xf32>
          %shuffleResult_430, %valid_431 = gpu.shuffle  xor %1020, %c4_i32, %c64_i32 : vector<1xf32>
          %1021 = arith.addf %1020, %shuffleResult_430 : vector<1xf32>
          %shuffleResult_432, %valid_433 = gpu.shuffle  xor %1021, %c8_i32, %c64_i32 : vector<1xf32>
          %1022 = arith.addf %1021, %shuffleResult_432 : vector<1xf32>
          %shuffleResult_434, %valid_435 = gpu.shuffle  xor %1022, %c16_i32, %c64_i32 : vector<1xf32>
          %1023 = arith.addf %1022, %shuffleResult_434 : vector<1xf32>
          %shuffleResult_436, %valid_437 = gpu.shuffle  xor %1023, %c32_i32, %c64_i32 : vector<1xf32>
          %1024 = arith.addf %1023, %shuffleResult_436 : vector<1xf32>
          %1025 = arith.addf %1024, %637 : vector<1xf32>
          %1026 = arith.extf %289 : f16 to f32
          %1027 = arith.mulf %1026, %686 : f32
          %1028 = vector.splat %1027 : vector<1xf32>
          %shuffleResult_438, %valid_439 = gpu.shuffle  xor %1028, %c1_i32, %c64_i32 : vector<1xf32>
          %1029 = arith.addf %1028, %shuffleResult_438 : vector<1xf32>
          %shuffleResult_440, %valid_441 = gpu.shuffle  xor %1029, %c2_i32, %c64_i32 : vector<1xf32>
          %1030 = arith.addf %1029, %shuffleResult_440 : vector<1xf32>
          %shuffleResult_442, %valid_443 = gpu.shuffle  xor %1030, %c4_i32, %c64_i32 : vector<1xf32>
          %1031 = arith.addf %1030, %shuffleResult_442 : vector<1xf32>
          %shuffleResult_444, %valid_445 = gpu.shuffle  xor %1031, %c8_i32, %c64_i32 : vector<1xf32>
          %1032 = arith.addf %1031, %shuffleResult_444 : vector<1xf32>
          %shuffleResult_446, %valid_447 = gpu.shuffle  xor %1032, %c16_i32, %c64_i32 : vector<1xf32>
          %1033 = arith.addf %1032, %shuffleResult_446 : vector<1xf32>
          %shuffleResult_448, %valid_449 = gpu.shuffle  xor %1033, %c32_i32, %c64_i32 : vector<1xf32>
          %1034 = arith.addf %1033, %shuffleResult_448 : vector<1xf32>
          %1035 = arith.addf %1034, %638 : vector<1xf32>
          %1036 = arith.extf %290 : f16 to f32
          %1037 = arith.mulf %1036, %686 : f32
          %1038 = vector.splat %1037 : vector<1xf32>
          %shuffleResult_450, %valid_451 = gpu.shuffle  xor %1038, %c1_i32, %c64_i32 : vector<1xf32>
          %1039 = arith.addf %1038, %shuffleResult_450 : vector<1xf32>
          %shuffleResult_452, %valid_453 = gpu.shuffle  xor %1039, %c2_i32, %c64_i32 : vector<1xf32>
          %1040 = arith.addf %1039, %shuffleResult_452 : vector<1xf32>
          %shuffleResult_454, %valid_455 = gpu.shuffle  xor %1040, %c4_i32, %c64_i32 : vector<1xf32>
          %1041 = arith.addf %1040, %shuffleResult_454 : vector<1xf32>
          %shuffleResult_456, %valid_457 = gpu.shuffle  xor %1041, %c8_i32, %c64_i32 : vector<1xf32>
          %1042 = arith.addf %1041, %shuffleResult_456 : vector<1xf32>
          %shuffleResult_458, %valid_459 = gpu.shuffle  xor %1042, %c16_i32, %c64_i32 : vector<1xf32>
          %1043 = arith.addf %1042, %shuffleResult_458 : vector<1xf32>
          %shuffleResult_460, %valid_461 = gpu.shuffle  xor %1043, %c32_i32, %c64_i32 : vector<1xf32>
          %1044 = arith.addf %1043, %shuffleResult_460 : vector<1xf32>
          %1045 = arith.addf %1044, %639 : vector<1xf32>
          %1046 = arith.extf %291 : f16 to f32
          %1047 = arith.mulf %1046, %686 : f32
          %1048 = vector.splat %1047 : vector<1xf32>
          %shuffleResult_462, %valid_463 = gpu.shuffle  xor %1048, %c1_i32, %c64_i32 : vector<1xf32>
          %1049 = arith.addf %1048, %shuffleResult_462 : vector<1xf32>
          %shuffleResult_464, %valid_465 = gpu.shuffle  xor %1049, %c2_i32, %c64_i32 : vector<1xf32>
          %1050 = arith.addf %1049, %shuffleResult_464 : vector<1xf32>
          %shuffleResult_466, %valid_467 = gpu.shuffle  xor %1050, %c4_i32, %c64_i32 : vector<1xf32>
          %1051 = arith.addf %1050, %shuffleResult_466 : vector<1xf32>
          %shuffleResult_468, %valid_469 = gpu.shuffle  xor %1051, %c8_i32, %c64_i32 : vector<1xf32>
          %1052 = arith.addf %1051, %shuffleResult_468 : vector<1xf32>
          %shuffleResult_470, %valid_471 = gpu.shuffle  xor %1052, %c16_i32, %c64_i32 : vector<1xf32>
          %1053 = arith.addf %1052, %shuffleResult_470 : vector<1xf32>
          %shuffleResult_472, %valid_473 = gpu.shuffle  xor %1053, %c32_i32, %c64_i32 : vector<1xf32>
          %1054 = arith.addf %1053, %shuffleResult_472 : vector<1xf32>
          %1055 = arith.addf %1054, %640 : vector<1xf32>
          %1056 = arith.extf %292 : f16 to f32
          %1057 = arith.mulf %1056, %686 : f32
          %1058 = vector.splat %1057 : vector<1xf32>
          %shuffleResult_474, %valid_475 = gpu.shuffle  xor %1058, %c1_i32, %c64_i32 : vector<1xf32>
          %1059 = arith.addf %1058, %shuffleResult_474 : vector<1xf32>
          %shuffleResult_476, %valid_477 = gpu.shuffle  xor %1059, %c2_i32, %c64_i32 : vector<1xf32>
          %1060 = arith.addf %1059, %shuffleResult_476 : vector<1xf32>
          %shuffleResult_478, %valid_479 = gpu.shuffle  xor %1060, %c4_i32, %c64_i32 : vector<1xf32>
          %1061 = arith.addf %1060, %shuffleResult_478 : vector<1xf32>
          %shuffleResult_480, %valid_481 = gpu.shuffle  xor %1061, %c8_i32, %c64_i32 : vector<1xf32>
          %1062 = arith.addf %1061, %shuffleResult_480 : vector<1xf32>
          %shuffleResult_482, %valid_483 = gpu.shuffle  xor %1062, %c16_i32, %c64_i32 : vector<1xf32>
          %1063 = arith.addf %1062, %shuffleResult_482 : vector<1xf32>
          %shuffleResult_484, %valid_485 = gpu.shuffle  xor %1063, %c32_i32, %c64_i32 : vector<1xf32>
          %1064 = arith.addf %1063, %shuffleResult_484 : vector<1xf32>
          %1065 = arith.addf %1064, %641 : vector<1xf32>
          %1066 = arith.extf %293 : f16 to f32
          %1067 = arith.mulf %1066, %686 : f32
          %1068 = vector.splat %1067 : vector<1xf32>
          %shuffleResult_486, %valid_487 = gpu.shuffle  xor %1068, %c1_i32, %c64_i32 : vector<1xf32>
          %1069 = arith.addf %1068, %shuffleResult_486 : vector<1xf32>
          %shuffleResult_488, %valid_489 = gpu.shuffle  xor %1069, %c2_i32, %c64_i32 : vector<1xf32>
          %1070 = arith.addf %1069, %shuffleResult_488 : vector<1xf32>
          %shuffleResult_490, %valid_491 = gpu.shuffle  xor %1070, %c4_i32, %c64_i32 : vector<1xf32>
          %1071 = arith.addf %1070, %shuffleResult_490 : vector<1xf32>
          %shuffleResult_492, %valid_493 = gpu.shuffle  xor %1071, %c8_i32, %c64_i32 : vector<1xf32>
          %1072 = arith.addf %1071, %shuffleResult_492 : vector<1xf32>
          %shuffleResult_494, %valid_495 = gpu.shuffle  xor %1072, %c16_i32, %c64_i32 : vector<1xf32>
          %1073 = arith.addf %1072, %shuffleResult_494 : vector<1xf32>
          %shuffleResult_496, %valid_497 = gpu.shuffle  xor %1073, %c32_i32, %c64_i32 : vector<1xf32>
          %1074 = arith.addf %1073, %shuffleResult_496 : vector<1xf32>
          %1075 = arith.addf %1074, %642 : vector<1xf32>
          %1076 = arith.extf %294 : f16 to f32
          %1077 = arith.mulf %1076, %686 : f32
          %1078 = vector.splat %1077 : vector<1xf32>
          %shuffleResult_498, %valid_499 = gpu.shuffle  xor %1078, %c1_i32, %c64_i32 : vector<1xf32>
          %1079 = arith.addf %1078, %shuffleResult_498 : vector<1xf32>
          %shuffleResult_500, %valid_501 = gpu.shuffle  xor %1079, %c2_i32, %c64_i32 : vector<1xf32>
          %1080 = arith.addf %1079, %shuffleResult_500 : vector<1xf32>
          %shuffleResult_502, %valid_503 = gpu.shuffle  xor %1080, %c4_i32, %c64_i32 : vector<1xf32>
          %1081 = arith.addf %1080, %shuffleResult_502 : vector<1xf32>
          %shuffleResult_504, %valid_505 = gpu.shuffle  xor %1081, %c8_i32, %c64_i32 : vector<1xf32>
          %1082 = arith.addf %1081, %shuffleResult_504 : vector<1xf32>
          %shuffleResult_506, %valid_507 = gpu.shuffle  xor %1082, %c16_i32, %c64_i32 : vector<1xf32>
          %1083 = arith.addf %1082, %shuffleResult_506 : vector<1xf32>
          %shuffleResult_508, %valid_509 = gpu.shuffle  xor %1083, %c32_i32, %c64_i32 : vector<1xf32>
          %1084 = arith.addf %1083, %shuffleResult_508 : vector<1xf32>
          %1085 = arith.addf %1084, %643 : vector<1xf32>
          %1086 = arith.extf %295 : f16 to f32
          %1087 = arith.mulf %1086, %686 : f32
          %1088 = vector.splat %1087 : vector<1xf32>
          %shuffleResult_510, %valid_511 = gpu.shuffle  xor %1088, %c1_i32, %c64_i32 : vector<1xf32>
          %1089 = arith.addf %1088, %shuffleResult_510 : vector<1xf32>
          %shuffleResult_512, %valid_513 = gpu.shuffle  xor %1089, %c2_i32, %c64_i32 : vector<1xf32>
          %1090 = arith.addf %1089, %shuffleResult_512 : vector<1xf32>
          %shuffleResult_514, %valid_515 = gpu.shuffle  xor %1090, %c4_i32, %c64_i32 : vector<1xf32>
          %1091 = arith.addf %1090, %shuffleResult_514 : vector<1xf32>
          %shuffleResult_516, %valid_517 = gpu.shuffle  xor %1091, %c8_i32, %c64_i32 : vector<1xf32>
          %1092 = arith.addf %1091, %shuffleResult_516 : vector<1xf32>
          %shuffleResult_518, %valid_519 = gpu.shuffle  xor %1092, %c16_i32, %c64_i32 : vector<1xf32>
          %1093 = arith.addf %1092, %shuffleResult_518 : vector<1xf32>
          %shuffleResult_520, %valid_521 = gpu.shuffle  xor %1093, %c32_i32, %c64_i32 : vector<1xf32>
          %1094 = arith.addf %1093, %shuffleResult_520 : vector<1xf32>
          %1095 = arith.addf %1094, %644 : vector<1xf32>
          %1096 = arith.extf %296 : f16 to f32
          %1097 = arith.mulf %1096, %686 : f32
          %1098 = vector.splat %1097 : vector<1xf32>
          %shuffleResult_522, %valid_523 = gpu.shuffle  xor %1098, %c1_i32, %c64_i32 : vector<1xf32>
          %1099 = arith.addf %1098, %shuffleResult_522 : vector<1xf32>
          %shuffleResult_524, %valid_525 = gpu.shuffle  xor %1099, %c2_i32, %c64_i32 : vector<1xf32>
          %1100 = arith.addf %1099, %shuffleResult_524 : vector<1xf32>
          %shuffleResult_526, %valid_527 = gpu.shuffle  xor %1100, %c4_i32, %c64_i32 : vector<1xf32>
          %1101 = arith.addf %1100, %shuffleResult_526 : vector<1xf32>
          %shuffleResult_528, %valid_529 = gpu.shuffle  xor %1101, %c8_i32, %c64_i32 : vector<1xf32>
          %1102 = arith.addf %1101, %shuffleResult_528 : vector<1xf32>
          %shuffleResult_530, %valid_531 = gpu.shuffle  xor %1102, %c16_i32, %c64_i32 : vector<1xf32>
          %1103 = arith.addf %1102, %shuffleResult_530 : vector<1xf32>
          %shuffleResult_532, %valid_533 = gpu.shuffle  xor %1103, %c32_i32, %c64_i32 : vector<1xf32>
          %1104 = arith.addf %1103, %shuffleResult_532 : vector<1xf32>
          %1105 = arith.addf %1104, %645 : vector<1xf32>
          %1106 = arith.extf %297 : f16 to f32
          %1107 = arith.mulf %1106, %686 : f32
          %1108 = vector.splat %1107 : vector<1xf32>
          %shuffleResult_534, %valid_535 = gpu.shuffle  xor %1108, %c1_i32, %c64_i32 : vector<1xf32>
          %1109 = arith.addf %1108, %shuffleResult_534 : vector<1xf32>
          %shuffleResult_536, %valid_537 = gpu.shuffle  xor %1109, %c2_i32, %c64_i32 : vector<1xf32>
          %1110 = arith.addf %1109, %shuffleResult_536 : vector<1xf32>
          %shuffleResult_538, %valid_539 = gpu.shuffle  xor %1110, %c4_i32, %c64_i32 : vector<1xf32>
          %1111 = arith.addf %1110, %shuffleResult_538 : vector<1xf32>
          %shuffleResult_540, %valid_541 = gpu.shuffle  xor %1111, %c8_i32, %c64_i32 : vector<1xf32>
          %1112 = arith.addf %1111, %shuffleResult_540 : vector<1xf32>
          %shuffleResult_542, %valid_543 = gpu.shuffle  xor %1112, %c16_i32, %c64_i32 : vector<1xf32>
          %1113 = arith.addf %1112, %shuffleResult_542 : vector<1xf32>
          %shuffleResult_544, %valid_545 = gpu.shuffle  xor %1113, %c32_i32, %c64_i32 : vector<1xf32>
          %1114 = arith.addf %1113, %shuffleResult_544 : vector<1xf32>
          %1115 = arith.addf %1114, %646 : vector<1xf32>
          %1116 = arith.extf %298 : f16 to f32
          %1117 = arith.mulf %1116, %686 : f32
          %1118 = vector.splat %1117 : vector<1xf32>
          %shuffleResult_546, %valid_547 = gpu.shuffle  xor %1118, %c1_i32, %c64_i32 : vector<1xf32>
          %1119 = arith.addf %1118, %shuffleResult_546 : vector<1xf32>
          %shuffleResult_548, %valid_549 = gpu.shuffle  xor %1119, %c2_i32, %c64_i32 : vector<1xf32>
          %1120 = arith.addf %1119, %shuffleResult_548 : vector<1xf32>
          %shuffleResult_550, %valid_551 = gpu.shuffle  xor %1120, %c4_i32, %c64_i32 : vector<1xf32>
          %1121 = arith.addf %1120, %shuffleResult_550 : vector<1xf32>
          %shuffleResult_552, %valid_553 = gpu.shuffle  xor %1121, %c8_i32, %c64_i32 : vector<1xf32>
          %1122 = arith.addf %1121, %shuffleResult_552 : vector<1xf32>
          %shuffleResult_554, %valid_555 = gpu.shuffle  xor %1122, %c16_i32, %c64_i32 : vector<1xf32>
          %1123 = arith.addf %1122, %shuffleResult_554 : vector<1xf32>
          %shuffleResult_556, %valid_557 = gpu.shuffle  xor %1123, %c32_i32, %c64_i32 : vector<1xf32>
          %1124 = arith.addf %1123, %shuffleResult_556 : vector<1xf32>
          %1125 = arith.addf %1124, %647 : vector<1xf32>
          %1126 = arith.extf %299 : f16 to f32
          %1127 = arith.mulf %1126, %686 : f32
          %1128 = vector.splat %1127 : vector<1xf32>
          %shuffleResult_558, %valid_559 = gpu.shuffle  xor %1128, %c1_i32, %c64_i32 : vector<1xf32>
          %1129 = arith.addf %1128, %shuffleResult_558 : vector<1xf32>
          %shuffleResult_560, %valid_561 = gpu.shuffle  xor %1129, %c2_i32, %c64_i32 : vector<1xf32>
          %1130 = arith.addf %1129, %shuffleResult_560 : vector<1xf32>
          %shuffleResult_562, %valid_563 = gpu.shuffle  xor %1130, %c4_i32, %c64_i32 : vector<1xf32>
          %1131 = arith.addf %1130, %shuffleResult_562 : vector<1xf32>
          %shuffleResult_564, %valid_565 = gpu.shuffle  xor %1131, %c8_i32, %c64_i32 : vector<1xf32>
          %1132 = arith.addf %1131, %shuffleResult_564 : vector<1xf32>
          %shuffleResult_566, %valid_567 = gpu.shuffle  xor %1132, %c16_i32, %c64_i32 : vector<1xf32>
          %1133 = arith.addf %1132, %shuffleResult_566 : vector<1xf32>
          %shuffleResult_568, %valid_569 = gpu.shuffle  xor %1133, %c32_i32, %c64_i32 : vector<1xf32>
          %1134 = arith.addf %1133, %shuffleResult_568 : vector<1xf32>
          %1135 = arith.addf %1134, %648 : vector<1xf32>
          %1136 = arith.extf %300 : f16 to f32
          %1137 = arith.mulf %1136, %686 : f32
          %1138 = vector.splat %1137 : vector<1xf32>
          %shuffleResult_570, %valid_571 = gpu.shuffle  xor %1138, %c1_i32, %c64_i32 : vector<1xf32>
          %1139 = arith.addf %1138, %shuffleResult_570 : vector<1xf32>
          %shuffleResult_572, %valid_573 = gpu.shuffle  xor %1139, %c2_i32, %c64_i32 : vector<1xf32>
          %1140 = arith.addf %1139, %shuffleResult_572 : vector<1xf32>
          %shuffleResult_574, %valid_575 = gpu.shuffle  xor %1140, %c4_i32, %c64_i32 : vector<1xf32>
          %1141 = arith.addf %1140, %shuffleResult_574 : vector<1xf32>
          %shuffleResult_576, %valid_577 = gpu.shuffle  xor %1141, %c8_i32, %c64_i32 : vector<1xf32>
          %1142 = arith.addf %1141, %shuffleResult_576 : vector<1xf32>
          %shuffleResult_578, %valid_579 = gpu.shuffle  xor %1142, %c16_i32, %c64_i32 : vector<1xf32>
          %1143 = arith.addf %1142, %shuffleResult_578 : vector<1xf32>
          %shuffleResult_580, %valid_581 = gpu.shuffle  xor %1143, %c32_i32, %c64_i32 : vector<1xf32>
          %1144 = arith.addf %1143, %shuffleResult_580 : vector<1xf32>
          %1145 = arith.addf %1144, %649 : vector<1xf32>
          %1146 = arith.extf %301 : f16 to f32
          %1147 = arith.mulf %1146, %686 : f32
          %1148 = vector.splat %1147 : vector<1xf32>
          %shuffleResult_582, %valid_583 = gpu.shuffle  xor %1148, %c1_i32, %c64_i32 : vector<1xf32>
          %1149 = arith.addf %1148, %shuffleResult_582 : vector<1xf32>
          %shuffleResult_584, %valid_585 = gpu.shuffle  xor %1149, %c2_i32, %c64_i32 : vector<1xf32>
          %1150 = arith.addf %1149, %shuffleResult_584 : vector<1xf32>
          %shuffleResult_586, %valid_587 = gpu.shuffle  xor %1150, %c4_i32, %c64_i32 : vector<1xf32>
          %1151 = arith.addf %1150, %shuffleResult_586 : vector<1xf32>
          %shuffleResult_588, %valid_589 = gpu.shuffle  xor %1151, %c8_i32, %c64_i32 : vector<1xf32>
          %1152 = arith.addf %1151, %shuffleResult_588 : vector<1xf32>
          %shuffleResult_590, %valid_591 = gpu.shuffle  xor %1152, %c16_i32, %c64_i32 : vector<1xf32>
          %1153 = arith.addf %1152, %shuffleResult_590 : vector<1xf32>
          %shuffleResult_592, %valid_593 = gpu.shuffle  xor %1153, %c32_i32, %c64_i32 : vector<1xf32>
          %1154 = arith.addf %1153, %shuffleResult_592 : vector<1xf32>
          %1155 = arith.addf %1154, %650 : vector<1xf32>
          %1156 = arith.extf %302 : f16 to f32
          %1157 = arith.mulf %1156, %686 : f32
          %1158 = vector.splat %1157 : vector<1xf32>
          %shuffleResult_594, %valid_595 = gpu.shuffle  xor %1158, %c1_i32, %c64_i32 : vector<1xf32>
          %1159 = arith.addf %1158, %shuffleResult_594 : vector<1xf32>
          %shuffleResult_596, %valid_597 = gpu.shuffle  xor %1159, %c2_i32, %c64_i32 : vector<1xf32>
          %1160 = arith.addf %1159, %shuffleResult_596 : vector<1xf32>
          %shuffleResult_598, %valid_599 = gpu.shuffle  xor %1160, %c4_i32, %c64_i32 : vector<1xf32>
          %1161 = arith.addf %1160, %shuffleResult_598 : vector<1xf32>
          %shuffleResult_600, %valid_601 = gpu.shuffle  xor %1161, %c8_i32, %c64_i32 : vector<1xf32>
          %1162 = arith.addf %1161, %shuffleResult_600 : vector<1xf32>
          %shuffleResult_602, %valid_603 = gpu.shuffle  xor %1162, %c16_i32, %c64_i32 : vector<1xf32>
          %1163 = arith.addf %1162, %shuffleResult_602 : vector<1xf32>
          %shuffleResult_604, %valid_605 = gpu.shuffle  xor %1163, %c32_i32, %c64_i32 : vector<1xf32>
          %1164 = arith.addf %1163, %shuffleResult_604 : vector<1xf32>
          %1165 = arith.addf %1164, %651 : vector<1xf32>
          %1166 = arith.extf %303 : f16 to f32
          %1167 = arith.mulf %1166, %686 : f32
          %1168 = vector.splat %1167 : vector<1xf32>
          %shuffleResult_606, %valid_607 = gpu.shuffle  xor %1168, %c1_i32, %c64_i32 : vector<1xf32>
          %1169 = arith.addf %1168, %shuffleResult_606 : vector<1xf32>
          %shuffleResult_608, %valid_609 = gpu.shuffle  xor %1169, %c2_i32, %c64_i32 : vector<1xf32>
          %1170 = arith.addf %1169, %shuffleResult_608 : vector<1xf32>
          %shuffleResult_610, %valid_611 = gpu.shuffle  xor %1170, %c4_i32, %c64_i32 : vector<1xf32>
          %1171 = arith.addf %1170, %shuffleResult_610 : vector<1xf32>
          %shuffleResult_612, %valid_613 = gpu.shuffle  xor %1171, %c8_i32, %c64_i32 : vector<1xf32>
          %1172 = arith.addf %1171, %shuffleResult_612 : vector<1xf32>
          %shuffleResult_614, %valid_615 = gpu.shuffle  xor %1172, %c16_i32, %c64_i32 : vector<1xf32>
          %1173 = arith.addf %1172, %shuffleResult_614 : vector<1xf32>
          %shuffleResult_616, %valid_617 = gpu.shuffle  xor %1173, %c32_i32, %c64_i32 : vector<1xf32>
          %1174 = arith.addf %1173, %shuffleResult_616 : vector<1xf32>
          %1175 = arith.addf %1174, %652 : vector<1xf32>
          %1176 = arith.extf %304 : f16 to f32
          %1177 = arith.mulf %1176, %686 : f32
          %1178 = vector.splat %1177 : vector<1xf32>
          %shuffleResult_618, %valid_619 = gpu.shuffle  xor %1178, %c1_i32, %c64_i32 : vector<1xf32>
          %1179 = arith.addf %1178, %shuffleResult_618 : vector<1xf32>
          %shuffleResult_620, %valid_621 = gpu.shuffle  xor %1179, %c2_i32, %c64_i32 : vector<1xf32>
          %1180 = arith.addf %1179, %shuffleResult_620 : vector<1xf32>
          %shuffleResult_622, %valid_623 = gpu.shuffle  xor %1180, %c4_i32, %c64_i32 : vector<1xf32>
          %1181 = arith.addf %1180, %shuffleResult_622 : vector<1xf32>
          %shuffleResult_624, %valid_625 = gpu.shuffle  xor %1181, %c8_i32, %c64_i32 : vector<1xf32>
          %1182 = arith.addf %1181, %shuffleResult_624 : vector<1xf32>
          %shuffleResult_626, %valid_627 = gpu.shuffle  xor %1182, %c16_i32, %c64_i32 : vector<1xf32>
          %1183 = arith.addf %1182, %shuffleResult_626 : vector<1xf32>
          %shuffleResult_628, %valid_629 = gpu.shuffle  xor %1183, %c32_i32, %c64_i32 : vector<1xf32>
          %1184 = arith.addf %1183, %shuffleResult_628 : vector<1xf32>
          %1185 = arith.addf %1184, %653 : vector<1xf32>
          %1186 = arith.extf %305 : f16 to f32
          %1187 = arith.mulf %1186, %686 : f32
          %1188 = vector.splat %1187 : vector<1xf32>
          %shuffleResult_630, %valid_631 = gpu.shuffle  xor %1188, %c1_i32, %c64_i32 : vector<1xf32>
          %1189 = arith.addf %1188, %shuffleResult_630 : vector<1xf32>
          %shuffleResult_632, %valid_633 = gpu.shuffle  xor %1189, %c2_i32, %c64_i32 : vector<1xf32>
          %1190 = arith.addf %1189, %shuffleResult_632 : vector<1xf32>
          %shuffleResult_634, %valid_635 = gpu.shuffle  xor %1190, %c4_i32, %c64_i32 : vector<1xf32>
          %1191 = arith.addf %1190, %shuffleResult_634 : vector<1xf32>
          %shuffleResult_636, %valid_637 = gpu.shuffle  xor %1191, %c8_i32, %c64_i32 : vector<1xf32>
          %1192 = arith.addf %1191, %shuffleResult_636 : vector<1xf32>
          %shuffleResult_638, %valid_639 = gpu.shuffle  xor %1192, %c16_i32, %c64_i32 : vector<1xf32>
          %1193 = arith.addf %1192, %shuffleResult_638 : vector<1xf32>
          %shuffleResult_640, %valid_641 = gpu.shuffle  xor %1193, %c32_i32, %c64_i32 : vector<1xf32>
          %1194 = arith.addf %1193, %shuffleResult_640 : vector<1xf32>
          %1195 = arith.addf %1194, %654 : vector<1xf32>
          %1196 = arith.extf %306 : f16 to f32
          %1197 = arith.mulf %1196, %686 : f32
          %1198 = vector.splat %1197 : vector<1xf32>
          %shuffleResult_642, %valid_643 = gpu.shuffle  xor %1198, %c1_i32, %c64_i32 : vector<1xf32>
          %1199 = arith.addf %1198, %shuffleResult_642 : vector<1xf32>
          %shuffleResult_644, %valid_645 = gpu.shuffle  xor %1199, %c2_i32, %c64_i32 : vector<1xf32>
          %1200 = arith.addf %1199, %shuffleResult_644 : vector<1xf32>
          %shuffleResult_646, %valid_647 = gpu.shuffle  xor %1200, %c4_i32, %c64_i32 : vector<1xf32>
          %1201 = arith.addf %1200, %shuffleResult_646 : vector<1xf32>
          %shuffleResult_648, %valid_649 = gpu.shuffle  xor %1201, %c8_i32, %c64_i32 : vector<1xf32>
          %1202 = arith.addf %1201, %shuffleResult_648 : vector<1xf32>
          %shuffleResult_650, %valid_651 = gpu.shuffle  xor %1202, %c16_i32, %c64_i32 : vector<1xf32>
          %1203 = arith.addf %1202, %shuffleResult_650 : vector<1xf32>
          %shuffleResult_652, %valid_653 = gpu.shuffle  xor %1203, %c32_i32, %c64_i32 : vector<1xf32>
          %1204 = arith.addf %1203, %shuffleResult_652 : vector<1xf32>
          %1205 = arith.addf %1204, %655 : vector<1xf32>
          %1206 = arith.extf %307 : f16 to f32
          %1207 = arith.mulf %1206, %686 : f32
          %1208 = vector.splat %1207 : vector<1xf32>
          %shuffleResult_654, %valid_655 = gpu.shuffle  xor %1208, %c1_i32, %c64_i32 : vector<1xf32>
          %1209 = arith.addf %1208, %shuffleResult_654 : vector<1xf32>
          %shuffleResult_656, %valid_657 = gpu.shuffle  xor %1209, %c2_i32, %c64_i32 : vector<1xf32>
          %1210 = arith.addf %1209, %shuffleResult_656 : vector<1xf32>
          %shuffleResult_658, %valid_659 = gpu.shuffle  xor %1210, %c4_i32, %c64_i32 : vector<1xf32>
          %1211 = arith.addf %1210, %shuffleResult_658 : vector<1xf32>
          %shuffleResult_660, %valid_661 = gpu.shuffle  xor %1211, %c8_i32, %c64_i32 : vector<1xf32>
          %1212 = arith.addf %1211, %shuffleResult_660 : vector<1xf32>
          %shuffleResult_662, %valid_663 = gpu.shuffle  xor %1212, %c16_i32, %c64_i32 : vector<1xf32>
          %1213 = arith.addf %1212, %shuffleResult_662 : vector<1xf32>
          %shuffleResult_664, %valid_665 = gpu.shuffle  xor %1213, %c32_i32, %c64_i32 : vector<1xf32>
          %1214 = arith.addf %1213, %shuffleResult_664 : vector<1xf32>
          %1215 = arith.addf %1214, %656 : vector<1xf32>
          %1216 = arith.extf %308 : f16 to f32
          %1217 = arith.mulf %1216, %686 : f32
          %1218 = vector.splat %1217 : vector<1xf32>
          %shuffleResult_666, %valid_667 = gpu.shuffle  xor %1218, %c1_i32, %c64_i32 : vector<1xf32>
          %1219 = arith.addf %1218, %shuffleResult_666 : vector<1xf32>
          %shuffleResult_668, %valid_669 = gpu.shuffle  xor %1219, %c2_i32, %c64_i32 : vector<1xf32>
          %1220 = arith.addf %1219, %shuffleResult_668 : vector<1xf32>
          %shuffleResult_670, %valid_671 = gpu.shuffle  xor %1220, %c4_i32, %c64_i32 : vector<1xf32>
          %1221 = arith.addf %1220, %shuffleResult_670 : vector<1xf32>
          %shuffleResult_672, %valid_673 = gpu.shuffle  xor %1221, %c8_i32, %c64_i32 : vector<1xf32>
          %1222 = arith.addf %1221, %shuffleResult_672 : vector<1xf32>
          %shuffleResult_674, %valid_675 = gpu.shuffle  xor %1222, %c16_i32, %c64_i32 : vector<1xf32>
          %1223 = arith.addf %1222, %shuffleResult_674 : vector<1xf32>
          %shuffleResult_676, %valid_677 = gpu.shuffle  xor %1223, %c32_i32, %c64_i32 : vector<1xf32>
          %1224 = arith.addf %1223, %shuffleResult_676 : vector<1xf32>
          %1225 = arith.addf %1224, %657 : vector<1xf32>
          %1226 = arith.extf %309 : f16 to f32
          %1227 = arith.mulf %1226, %686 : f32
          %1228 = vector.splat %1227 : vector<1xf32>
          %shuffleResult_678, %valid_679 = gpu.shuffle  xor %1228, %c1_i32, %c64_i32 : vector<1xf32>
          %1229 = arith.addf %1228, %shuffleResult_678 : vector<1xf32>
          %shuffleResult_680, %valid_681 = gpu.shuffle  xor %1229, %c2_i32, %c64_i32 : vector<1xf32>
          %1230 = arith.addf %1229, %shuffleResult_680 : vector<1xf32>
          %shuffleResult_682, %valid_683 = gpu.shuffle  xor %1230, %c4_i32, %c64_i32 : vector<1xf32>
          %1231 = arith.addf %1230, %shuffleResult_682 : vector<1xf32>
          %shuffleResult_684, %valid_685 = gpu.shuffle  xor %1231, %c8_i32, %c64_i32 : vector<1xf32>
          %1232 = arith.addf %1231, %shuffleResult_684 : vector<1xf32>
          %shuffleResult_686, %valid_687 = gpu.shuffle  xor %1232, %c16_i32, %c64_i32 : vector<1xf32>
          %1233 = arith.addf %1232, %shuffleResult_686 : vector<1xf32>
          %shuffleResult_688, %valid_689 = gpu.shuffle  xor %1233, %c32_i32, %c64_i32 : vector<1xf32>
          %1234 = arith.addf %1233, %shuffleResult_688 : vector<1xf32>
          %1235 = arith.addf %1234, %658 : vector<1xf32>
          %1236 = arith.extf %310 : f16 to f32
          %1237 = arith.mulf %1236, %686 : f32
          %1238 = vector.splat %1237 : vector<1xf32>
          %shuffleResult_690, %valid_691 = gpu.shuffle  xor %1238, %c1_i32, %c64_i32 : vector<1xf32>
          %1239 = arith.addf %1238, %shuffleResult_690 : vector<1xf32>
          %shuffleResult_692, %valid_693 = gpu.shuffle  xor %1239, %c2_i32, %c64_i32 : vector<1xf32>
          %1240 = arith.addf %1239, %shuffleResult_692 : vector<1xf32>
          %shuffleResult_694, %valid_695 = gpu.shuffle  xor %1240, %c4_i32, %c64_i32 : vector<1xf32>
          %1241 = arith.addf %1240, %shuffleResult_694 : vector<1xf32>
…
          %1245 = arith.addf %1244, %659 : vector<1xf32>
          %1246 = arith.extf %311 : f16 to f32
          %1247 = arith.mulf %1246, %686 : f32
          %1248 = vector.splat %1247 : vector<1xf32>
          %shuffleResult_702, %valid_703 = gpu.shuffle  xor %1248, %c1_i32, %c64_i32 : vector<1xf32>
          %1249 = arith.addf %1248, %shuffleResult_702 : vector<1xf32>
          %shuffleResult_704, %valid_705 = gpu.shuffle  xor %1249, %c2_i32, %c64_i32 : vector<1xf32>
          %1250 = arith.addf %1249, %shuffleResult_704 : vector<1xf32>
          %shuffleResult_706, %valid_707 = gpu.shuffle  xor %1250, %c4_i32, %c64_i32 : vector<1xf32>
          %1251 = arith.addf %1250, %shuffleResult_706 : vector<1xf32>
          %shuffleResult_708, %valid_709 = gpu.shuffle  xor %1251, %c8_i32, %c64_i32 : vector<1xf32>
          %1252 = arith.addf %1251, %shuffleResult_708 : vector<1xf32>
          %shuffleResult_710, %valid_711 = gpu.shuffle  xor %1252, %c16_i32, %c64_i32 : vector<1xf32>
          %1253 = arith.addf %1252, %shuffleResult_710 : vector<1xf32>
          %shuffleResult_712, %valid_713 = gpu.shuffle  xor %1253, %c32_i32, %c64_i32 : vector<1xf32>
          %1254 = arith.addf %1253, %shuffleResult_712 : vector<1xf32>
          %1255 = arith.addf %1254, %660 : vector<1xf32>
          %1256 = arith.extf %312 : f16 to f32
          %1257 = arith.mulf %1256, %686 : f32
          %1258 = vector.splat %1257 : vector<1xf32>
          %shuffleResult_714, %valid_715 = gpu.shuffle  xor %1258, %c1_i32, %c64_i32 : vector<1xf32>
          %1259 = arith.addf %1258, %shuffleResult_714 : vector<1xf32>
          %shuffleResult_716, %valid_717 = gpu.shuffle  xor %1259, %c2_i32, %c64_i32 : vector<1xf32>
          %1260 = arith.addf %1259, %shuffleResult_716 : vector<1xf32>
          %shuffleResult_718, %valid_719 = gpu.shuffle  xor %1260, %c4_i32, %c64_i32 : vector<1xf32>
          %1261 = arith.addf %1260, %shuffleResult_718 : vector<1xf32>
          %shuffleResult_720, %valid_721 = gpu.shuffle  xor %1261, %c8_i32, %c64_i32 : vector<1xf32>
          %1262 = arith.addf %1261, %shuffleResult_720 : vector<1xf32>
          %shuffleResult_722, %valid_723 = gpu.shuffle  xor %1262, %c16_i32, %c64_i32 : vector<1xf32>
          %1263 = arith.addf %1262, %shuffleResult_722 : vector<1xf32>
          %shuffleResult_724, %valid_725 = gpu.shuffle  xor %1263, %c32_i32, %c64_i32 : vector<1xf32>
          %1264 = arith.addf %1263, %shuffleResult_724 : vector<1xf32>
          %1265 = arith.addf %1264, %661 : vector<1xf32>
          %1266 = arith.extf %313 : f16 to f32
          %1267 = arith.mulf %1266, %686 : f32
          %1268 = vector.splat %1267 : vector<1xf32>
          %shuffleResult_726, %valid_727 = gpu.shuffle  xor %1268, %c1_i32, %c64_i32 : vector<1xf32>
          %1269 = arith.addf %1268, %shuffleResult_726 : vector<1xf32>
          %shuffleResult_728, %valid_729 = gpu.shuffle  xor %1269, %c2_i32, %c64_i32 : vector<1xf32>
          %1270 = arith.addf %1269, %shuffleResult_728 : vector<1xf32>
          %shuffleResult_730, %valid_731 = gpu.shuffle  xor %1270, %c4_i32, %c64_i32 : vector<1xf32>
          %1271 = arith.addf %1270, %shuffleResult_730 : vector<1xf32>
          %shuffleResult_732, %valid_733 = gpu.shuffle  xor %1271, %c8_i32, %c64_i32 : vector<1xf32>
          %1272 = arith.addf %1271, %shuffleResult_732 : vector<1xf32>
          %shuffleResult_734, %valid_735 = gpu.shuffle  xor %1272, %c16_i32, %c64_i32 : vector<1xf32>
          %1273 = arith.addf %1272, %shuffleResult_734 : vector<1xf32>
          %shuffleResult_736, %valid_737 = gpu.shuffle  xor %1273, %c32_i32, %c64_i32 : vector<1xf32>
          %1274 = arith.addf %1273, %shuffleResult_736 : vector<1xf32>
          %1275 = arith.addf %1274, %662 : vector<1xf32>
          %1276 = arith.extf %314 : f16 to f32
          %1277 = arith.mulf %1276, %686 : f32
          %1278 = vector.splat %1277 : vector<1xf32>
          %shuffleResult_738, %valid_739 = gpu.shuffle  xor %1278, %c1_i32, %c64_i32 : vector<1xf32>
          %1279 = arith.addf %1278, %shuffleResult_738 : vector<1xf32>
          %shuffleResult_740, %valid_741 = gpu.shuffle  xor %1279, %c2_i32, %c64_i32 : vector<1xf32>
          %1280 = arith.addf %1279, %shuffleResult_740 : vector<1xf32>
          %shuffleResult_742, %valid_743 = gpu.shuffle  xor %1280, %c4_i32, %c64_i32 : vector<1xf32>
          %1281 = arith.addf %1280, %shuffleResult_742 : vector<1xf32>
          %shuffleResult_744, %valid_745 = gpu.shuffle  xor %1281, %c8_i32, %c64_i32 : vector<1xf32>
          %1282 = arith.addf %1281, %shuffleResult_744 : vector<1xf32>
          %shuffleResult_746, %valid_747 = gpu.shuffle  xor %1282, %c16_i32, %c64_i32 : vector<1xf32>
          %1283 = arith.addf %1282, %shuffleResult_746 : vector<1xf32>
          %shuffleResult_748, %valid_749 = gpu.shuffle  xor %1283, %c32_i32, %c64_i32 : vector<1xf32>
          %1284 = arith.addf %1283, %shuffleResult_748 : vector<1xf32>
          %1285 = arith.addf %1284, %663 : vector<1xf32>
          %1286 = arith.extf %315 : f16 to f32
          %1287 = arith.mulf %1286, %686 : f32
          %1288 = vector.splat %1287 : vector<1xf32>
          %shuffleResult_750, %valid_751 = gpu.shuffle  xor %1288, %c1_i32, %c64_i32 : vector<1xf32>
          %1289 = arith.addf %1288, %shuffleResult_750 : vector<1xf32>
          %shuffleResult_752, %valid_753 = gpu.shuffle  xor %1289, %c2_i32, %c64_i32 : vector<1xf32>
          %1290 = arith.addf %1289, %shuffleResult_752 : vector<1xf32>
          %shuffleResult_754, %valid_755 = gpu.shuffle  xor %1290, %c4_i32, %c64_i32 : vector<1xf32>
          %1291 = arith.addf %1290, %shuffleResult_754 : vector<1xf32>
          %shuffleResult_756, %valid_757 = gpu.shuffle  xor %1291, %c8_i32, %c64_i32 : vector<1xf32>
          %1292 = arith.addf %1291, %shuffleResult_756 : vector<1xf32>
          %shuffleResult_758, %valid_759 = gpu.shuffle  xor %1292, %c16_i32, %c64_i32 : vector<1xf32>
          %1293 = arith.addf %1292, %shuffleResult_758 : vector<1xf32>
          %shuffleResult_760, %valid_761 = gpu.shuffle  xor %1293, %c32_i32, %c64_i32 : vector<1xf32>
          %1294 = arith.addf %1293, %shuffleResult_760 : vector<1xf32>
          %1295 = arith.addf %1294, %664 : vector<1xf32>
          %1296 = arith.extf %316 : f16 to f32
          %1297 = arith.mulf %1296, %686 : f32
          %1298 = vector.splat %1297 : vector<1xf32>
          %shuffleResult_762, %valid_763 = gpu.shuffle  xor %1298, %c1_i32, %c64_i32 : vector<1xf32>
          %1299 = arith.addf %1298, %shuffleResult_762 : vector<1xf32>
          %shuffleResult_764, %valid_765 = gpu.shuffle  xor %1299, %c2_i32, %c64_i32 : vector<1xf32>
          %1300 = arith.addf %1299, %shuffleResult_764 : vector<1xf32>
          %shuffleResult_766, %valid_767 = gpu.shuffle  xor %1300, %c4_i32, %c64_i32 : vector<1xf32>
          %1301 = arith.addf %1300, %shuffleResult_766 : vector<1xf32>
          %shuffleResult_768, %valid_769 = gpu.shuffle  xor %1301, %c8_i32, %c64_i32 : vector<1xf32>
          %1302 = arith.addf %1301, %shuffleResult_768 : vector<1xf32>
          %shuffleResult_770, %valid_771 = gpu.shuffle  xor %1302, %c16_i32, %c64_i32 : vector<1xf32>
          %1303 = arith.addf %1302, %shuffleResult_770 : vector<1xf32>
          %shuffleResult_772, %valid_773 = gpu.shuffle  xor %1303, %c32_i32, %c64_i32 : vector<1xf32>
          %1304 = arith.addf %1303, %shuffleResult_772 : vector<1xf32>
          %1305 = arith.addf %1304, %665 : vector<1xf32>
          %1306 = arith.extf %317 : f16 to f32
          %1307 = arith.mulf %1306, %686 : f32
          %1308 = vector.splat %1307 : vector<1xf32>
          %shuffleResult_774, %valid_775 = gpu.shuffle  xor %1308, %c1_i32, %c64_i32 : vector<1xf32>
          %1309 = arith.addf %1308, %shuffleResult_774 : vector<1xf32>
          %shuffleResult_776, %valid_777 = gpu.shuffle  xor %1309, %c2_i32, %c64_i32 : vector<1xf32>
          %1310 = arith.addf %1309, %shuffleResult_776 : vector<1xf32>
          %shuffleResult_778, %valid_779 = gpu.shuffle  xor %1310, %c4_i32, %c64_i32 : vector<1xf32>
          %1311 = arith.addf %1310, %shuffleResult_778 : vector<1xf32>
          %shuffleResult_780, %valid_781 = gpu.shuffle  xor %1311, %c8_i32, %c64_i32 : vector<1xf32>
          %1312 = arith.addf %1311, %shuffleResult_780 : vector<1xf32>
          %shuffleResult_782, %valid_783 = gpu.shuffle  xor %1312, %c16_i32, %c64_i32 : vector<1xf32>
          %1313 = arith.addf %1312, %shuffleResult_782 : vector<1xf32>
          %shuffleResult_784, %valid_785 = gpu.shuffle  xor %1313, %c32_i32, %c64_i32 : vector<1xf32>
          %1314 = arith.addf %1313, %shuffleResult_784 : vector<1xf32>
          %1315 = arith.addf %1314, %666 : vector<1xf32>
          %1316 = arith.extf %318 : f16 to f32
          %1317 = arith.mulf %1316, %686 : f32
          %1318 = vector.splat %1317 : vector<1xf32>
          %shuffleResult_786, %valid_787 = gpu.shuffle  xor %1318, %c1_i32, %c64_i32 : vector<1xf32>
          %1319 = arith.addf %1318, %shuffleResult_786 : vector<1xf32>
          %shuffleResult_788, %valid_789 = gpu.shuffle  xor %1319, %c2_i32, %c64_i32 : vector<1xf32>
          %1320 = arith.addf %1319, %shuffleResult_788 : vector<1xf32>
          %shuffleResult_790, %valid_791 = gpu.shuffle  xor %1320, %c4_i32, %c64_i32 : vector<1xf32>
          %1321 = arith.addf %1320, %shuffleResult_790 : vector<1xf32>
          %shuffleResult_792, %valid_793 = gpu.shuffle  xor %1321, %c8_i32, %c64_i32 : vector<1xf32>
          %1322 = arith.addf %1321, %shuffleResult_792 : vector<1xf32>
          %shuffleResult_794, %valid_795 = gpu.shuffle  xor %1322, %c16_i32, %c64_i32 : vector<1xf32>
          %1323 = arith.addf %1322, %shuffleResult_794 : vector<1xf32>
          %shuffleResult_796, %valid_797 = gpu.shuffle  xor %1323, %c32_i32, %c64_i32 : vector<1xf32>
          %1324 = arith.addf %1323, %shuffleResult_796 : vector<1xf32>
          %1325 = arith.addf %1324, %667 : vector<1xf32>
          %1326 = arith.extf %319 : f16 to f32
          %1327 = arith.mulf %1326, %686 : f32
          %1328 = vector.splat %1327 : vector<1xf32>
          %shuffleResult_798, %valid_799 = gpu.shuffle  xor %1328, %c1_i32, %c64_i32 : vector<1xf32>
          %1329 = arith.addf %1328, %shuffleResult_798 : vector<1xf32>
          %shuffleResult_800, %valid_801 = gpu.shuffle  xor %1329, %c2_i32, %c64_i32 : vector<1xf32>
          %1330 = arith.addf %1329, %shuffleResult_800 : vector<1xf32>
          %shuffleResult_802, %valid_803 = gpu.shuffle  xor %1330, %c4_i32, %c64_i32 : vector<1xf32>
          %1331 = arith.addf %1330, %shuffleResult_802 : vector<1xf32>
          %shuffleResult_804, %valid_805 = gpu.shuffle  xor %1331, %c8_i32, %c64_i32 : vector<1xf32>
          %1332 = arith.addf %1331, %shuffleResult_804 : vector<1xf32>
          %shuffleResult_806, %valid_807 = gpu.shuffle  xor %1332, %c16_i32, %c64_i32 : vector<1xf32>
          %1333 = arith.addf %1332, %shuffleResult_806 : vector<1xf32>
          %shuffleResult_808, %valid_809 = gpu.shuffle  xor %1333, %c32_i32, %c64_i32 : vector<1xf32>
          %1334 = arith.addf %1333, %shuffleResult_808 : vector<1xf32>
          %1335 = arith.addf %1334, %668 : vector<1xf32>
          %1336 = arith.extf %320 : f16 to f32
          %1337 = arith.mulf %1336, %686 : f32
          %1338 = vector.splat %1337 : vector<1xf32>
          %shuffleResult_810, %valid_811 = gpu.shuffle  xor %1338, %c1_i32, %c64_i32 : vector<1xf32>
          %1339 = arith.addf %1338, %shuffleResult_810 : vector<1xf32>
          %shuffleResult_812, %valid_813 = gpu.shuffle  xor %1339, %c2_i32, %c64_i32 : vector<1xf32>
          %1340 = arith.addf %1339, %shuffleResult_812 : vector<1xf32>
          %shuffleResult_814, %valid_815 = gpu.shuffle  xor %1340, %c4_i32, %c64_i32 : vector<1xf32>
          %1341 = arith.addf %1340, %shuffleResult_814 : vector<1xf32>
          %shuffleResult_816, %valid_817 = gpu.shuffle  xor %1341, %c8_i32, %c64_i32 : vector<1xf32>
          %1342 = arith.addf %1341, %shuffleResult_816 : vector<1xf32>
          %shuffleResult_818, %valid_819 = gpu.shuffle  xor %1342, %c16_i32, %c64_i32 : vector<1xf32>
          %1343 = arith.addf %1342, %shuffleResult_818 : vector<1xf32>
          %shuffleResult_820, %valid_821 = gpu.shuffle  xor %1343, %c32_i32, %c64_i32 : vector<1xf32>
          %1344 = arith.addf %1343, %shuffleResult_820 : vector<1xf32>
          %1345 = arith.addf %1344, %669 : vector<1xf32>
          %1346 = arith.extf %321 : f16 to f32
          %1347 = arith.mulf %1346, %686 : f32
          %1348 = vector.splat %1347 : vector<1xf32>
          %shuffleResult_822, %valid_823 = gpu.shuffle  xor %1348, %c1_i32, %c64_i32 : vector<1xf32>
          %1349 = arith.addf %1348, %shuffleResult_822 : vector<1xf32>
          %shuffleResult_824, %valid_825 = gpu.shuffle  xor %1349, %c2_i32, %c64_i32 : vector<1xf32>
          %1350 = arith.addf %1349, %shuffleResult_824 : vector<1xf32>
          %shuffleResult_826, %valid_827 = gpu.shuffle  xor %1350, %c4_i32, %c64_i32 : vector<1xf32>
          %1351 = arith.addf %1350, %shuffleResult_826 : vector<1xf32>
          %shuffleResult_828, %valid_829 = gpu.shuffle  xor %1351, %c8_i32, %c64_i32 : vector<1xf32>
          %1352 = arith.addf %1351, %shuffleResult_828 : vector<1xf32>
          %shuffleResult_830, %valid_831 = gpu.shuffle  xor %1352, %c16_i32, %c64_i32 : vector<1xf32>
          %1353 = arith.addf %1352, %shuffleResult_830 : vector<1xf32>
          %shuffleResult_832, %valid_833 = gpu.shuffle  xor %1353, %c32_i32, %c64_i32 : vector<1xf32>
          %1354 = arith.addf %1353, %shuffleResult_832 : vector<1xf32>
          %1355 = arith.addf %1354, %670 : vector<1xf32>
          %1356 = arith.extf %322 : f16 to f32
          %1357 = arith.mulf %1356, %686 : f32
          %1358 = vector.splat %1357 : vector<1xf32>
          %shuffleResult_834, %valid_835 = gpu.shuffle  xor %1358, %c1_i32, %c64_i32 : vector<1xf32>
          %1359 = arith.addf %1358, %shuffleResult_834 : vector<1xf32>
          %shuffleResult_836, %valid_837 = gpu.shuffle  xor %1359, %c2_i32, %c64_i32 : vector<1xf32>
          %1360 = arith.addf %1359, %shuffleResult_836 : vector<1xf32>
          %shuffleResult_838, %valid_839 = gpu.shuffle  xor %1360, %c4_i32, %c64_i32 : vector<1xf32>
          %1361 = arith.addf %1360, %shuffleResult_838 : vector<1xf32>
          %shuffleResult_840, %valid_841 = gpu.shuffle  xor %1361, %c8_i32, %c64_i32 : vector<1xf32>
          %1362 = arith.addf %1361, %shuffleResult_840 : vector<1xf32>
          %shuffleResult_842, %valid_843 = gpu.shuffle  xor %1362, %c16_i32, %c64_i32 : vector<1xf32>
          %1363 = arith.addf %1362, %shuffleResult_842 : vector<1xf32>
          %shuffleResult_844, %valid_845 = gpu.shuffle  xor %1363, %c32_i32, %c64_i32 : vector<1xf32>
          %1364 = arith.addf %1363, %shuffleResult_844 : vector<1xf32>
          %1365 = arith.addf %1364, %671 : vector<1xf32>
          %1366 = arith.extf %323 : f16 to f32
          %1367 = arith.mulf %1366, %686 : f32
          %1368 = vector.splat %1367 : vector<1xf32>
          %shuffleResult_846, %valid_847 = gpu.shuffle  xor %1368, %c1_i32, %c64_i32 : vector<1xf32>
          %1369 = arith.addf %1368, %shuffleResult_846 : vector<1xf32>
          %shuffleResult_848, %valid_849 = gpu.shuffle  xor %1369, %c2_i32, %c64_i32 : vector<1xf32>
          %1370 = arith.addf %1369, %shuffleResult_848 : vector<1xf32>
          %shuffleResult_850, %valid_851 = gpu.shuffle  xor %1370, %c4_i32, %c64_i32 : vector<1xf32>
          %1371 = arith.addf %1370, %shuffleResult_850 : vector<1xf32>
          %shuffleResult_852, %valid_853 = gpu.shuffle  xor %1371, %c8_i32, %c64_i32 : vector<1xf32>
          %1372 = arith.addf %1371, %shuffleResult_852 : vector<1xf32>
          %shuffleResult_854, %valid_855 = gpu.shuffle  xor %1372, %c16_i32, %c64_i32 : vector<1xf32>
          %1373 = arith.addf %1372, %shuffleResult_854 : vector<1xf32>
          %shuffleResult_856, %valid_857 = gpu.shuffle  xor %1373, %c32_i32, %c64_i32 : vector<1xf32>
          %1374 = arith.addf %1373, %shuffleResult_856 : vector<1xf32>
          %1375 = arith.addf %1374, %672 : vector<1xf32>
          %1376 = arith.extf %324 : f16 to f32
          %1377 = arith.mulf %1376, %686 : f32
          %1378 = vector.splat %1377 : vector<1xf32>
          %shuffleResult_858, %valid_859 = gpu.shuffle  xor %1378, %c1_i32, %c64_i32 : vector<1xf32>
          %1379 = arith.addf %1378, %shuffleResult_858 : vector<1xf32>
          %shuffleResult_860, %valid_861 = gpu.shuffle  xor %1379, %c2_i32, %c64_i32 : vector<1xf32>
          %1380 = arith.addf %1379, %shuffleResult_860 : vector<1xf32>
          %shuffleResult_862, %valid_863 = gpu.shuffle  xor %1380, %c4_i32, %c64_i32 : vector<1xf32>
          %1381 = arith.addf %1380, %shuffleResult_862 : vector<1xf32>
          %shuffleResult_864, %valid_865 = gpu.shuffle  xor %1381, %c8_i32, %c64_i32 : vector<1xf32>
          %1382 = arith.addf %1381, %shuffleResult_864 : vector<1xf32>
          %shuffleResult_866, %valid_867 = gpu.shuffle  xor %1382, %c16_i32, %c64_i32 : vector<1xf32>
          %1383 = arith.addf %1382, %shuffleResult_866 : vector<1xf32>
          %shuffleResult_868, %valid_869 = gpu.shuffle  xor %1383, %c32_i32, %c64_i32 : vector<1xf32>
          %1384 = arith.addf %1383, %shuffleResult_868 : vector<1xf32>
          %1385 = arith.addf %1384, %673 : vector<1xf32>
          %1386 = arith.extf %325 : f16 to f32
          %1387 = arith.mulf %1386, %686 : f32
          %1388 = vector.splat %1387 : vector<1xf32>
          %shuffleResult_870, %valid_871 = gpu.shuffle  xor %1388, %c1_i32, %c64_i32 : vector<1xf32>
          %1389 = arith.addf %1388, %shuffleResult_870 : vector<1xf32>
          %shuffleResult_872, %valid_873 = gpu.shuffle  xor %1389, %c2_i32, %c64_i32 : vector<1xf32>
          %1390 = arith.addf %1389, %shuffleResult_872 : vector<1xf32>
          %shuffleResult_874, %valid_875 = gpu.shuffle  xor %1390, %c4_i32, %c64_i32 : vector<1xf32>
          %1391 = arith.addf %1390, %shuffleResult_874 : vector<1xf32>
          %shuffleResult_876, %valid_877 = gpu.shuffle  xor %1391, %c8_i32, %c64_i32 : vector<1xf32>
          %1392 = arith.addf %1391, %shuffleResult_876 : vector<1xf32>
          %shuffleResult_878, %valid_879 = gpu.shuffle  xor %1392, %c16_i32, %c64_i32 : vector<1xf32>
          %1393 = arith.addf %1392, %shuffleResult_878 : vector<1xf32>
          %shuffleResult_880, %valid_881 = gpu.shuffle  xor %1393, %c32_i32, %c64_i32 : vector<1xf32>
          %1394 = arith.addf %1393, %shuffleResult_880 : vector<1xf32>
          %1395 = arith.addf %1394, %674 : vector<1xf32>
          %1396 = arith.extf %326 : f16 to f32
          %1397 = arith.mulf %1396, %686 : f32
          %1398 = vector.splat %1397 : vector<1xf32>
          %shuffleResult_882, %valid_883 = gpu.shuffle  xor %1398, %c1_i32, %c64_i32 : vector<1xf32>
          %1399 = arith.addf %1398, %shuffleResult_882 : vector<1xf32>
          %shuffleResult_884, %valid_885 = gpu.shuffle  xor %1399, %c2_i32, %c64_i32 : vector<1xf32>
          %1400 = arith.addf %1399, %shuffleResult_884 : vector<1xf32>
          %shuffleResult_886, %valid_887 = gpu.shuffle  xor %1400, %c4_i32, %c64_i32 : vector<1xf32>
          %1401 = arith.addf %1400, %shuffleResult_886 : vector<1xf32>
          %shuffleResult_888, %valid_889 = gpu.shuffle  xor %1401, %c8_i32, %c64_i32 : vector<1xf32>
          %1402 = arith.addf %1401, %shuffleResult_888 : vector<1xf32>
          %shuffleResult_890, %valid_891 = gpu.shuffle  xor %1402, %c16_i32, %c64_i32 : vector<1xf32>
          %1403 = arith.addf %1402, %shuffleResult_890 : vector<1xf32>
          %shuffleResult_892, %valid_893 = gpu.shuffle  xor %1403, %c32_i32, %c64_i32 : vector<1xf32>
          %1404 = arith.addf %1403, %shuffleResult_892 : vector<1xf32>
          %1405 = arith.addf %1404, %675 : vector<1xf32>
          %1406 = arith.extf %327 : f16 to f32
          %1407 = arith.mulf %1406, %686 : f32
          %1408 = vector.splat %1407 : vector<1xf32>
          %shuffleResult_894, %valid_895 = gpu.shuffle  xor %1408, %c1_i32, %c64_i32 : vector<1xf32>
          %1409 = arith.addf %1408, %shuffleResult_894 : vector<1xf32>
          %shuffleResult_896, %valid_897 = gpu.shuffle  xor %1409, %c2_i32, %c64_i32 : vector<1xf32>
          %1410 = arith.addf %1409, %shuffleResult_896 : vector<1xf32>
          %shuffleResult_898, %valid_899 = gpu.shuffle  xor %1410, %c4_i32, %c64_i32 : vector<1xf32>
          %1411 = arith.addf %1410, %shuffleResult_898 : vector<1xf32>
          %shuffleResult_900, %valid_901 = gpu.shuffle  xor %1411, %c8_i32, %c64_i32 : vector<1xf32>
          %1412 = arith.addf %1411, %shuffleResult_900 : vector<1xf32>
          %shuffleResult_902, %valid_903 = gpu.shuffle  xor %1412, %c16_i32, %c64_i32 : vector<1xf32>
          %1413 = arith.addf %1412, %shuffleResult_902 : vector<1xf32>
          %shuffleResult_904, %valid_905 = gpu.shuffle  xor %1413, %c32_i32, %c64_i32 : vector<1xf32>
          %1414 = arith.addf %1413, %shuffleResult_904 : vector<1xf32>
          %1415 = arith.addf %1414, %676 : vector<1xf32>
          %1416 = arith.extf %328 : f16 to f32
          %1417 = arith.mulf %1416, %686 : f32
          %1418 = vector.splat %1417 : vector<1xf32>
          %shuffleResult_906, %valid_907 = gpu.shuffle  xor %1418, %c1_i32, %c64_i32 : vector<1xf32>
          %1419 = arith.addf %1418, %shuffleResult_906 : vector<1xf32>
          %shuffleResult_908, %valid_909 = gpu.shuffle  xor %1419, %c2_i32, %c64_i32 : vector<1xf32>
          %1420 = arith.addf %1419, %shuffleResult_908 : vector<1xf32>
          %shuffleResult_910, %valid_911 = gpu.shuffle  xor %1420, %c4_i32, %c64_i32 : vector<1xf32>
          %1421 = arith.addf %1420, %shuffleResult_910 : vector<1xf32>
          %shuffleResult_912, %valid_913 = gpu.shuffle  xor %1421, %c8_i32, %c64_i32 : vector<1xf32>
          %1422 = arith.addf %1421, %shuffleResult_912 : vector<1xf32>
          %shuffleResult_914, %valid_915 = gpu.shuffle  xor %1422, %c16_i32, %c64_i32 : vector<1xf32>
          %1423 = arith.addf %1422, %shuffleResult_914 : vector<1xf32>
          %shuffleResult_916, %valid_917 = gpu.shuffle  xor %1423, %c32_i32, %c64_i32 : vector<1xf32>
          %1424 = arith.addf %1423, %shuffleResult_916 : vector<1xf32>
          %1425 = arith.addf %1424, %677 : vector<1xf32>
          %1426 = arith.extf %329 : f16 to f32
          %1427 = arith.mulf %1426, %686 : f32
          %1428 = vector.splat %1427 : vector<1xf32>
          %shuffleResult_918, %valid_919 = gpu.shuffle  xor %1428, %c1_i32, %c64_i32 : vector<1xf32>
          %1429 = arith.addf %1428, %shuffleResult_918 : vector<1xf32>
          %shuffleResult_920, %valid_921 = gpu.shuffle  xor %1429, %c2_i32, %c64_i32 : vector<1xf32>
          %1430 = arith.addf %1429, %shuffleResult_920 : vector<1xf32>
          %shuffleResult_922, %valid_923 = gpu.shuffle  xor %1430, %c4_i32, %c64_i32 : vector<1xf32>
          %1431 = arith.addf %1430, %shuffleResult_922 : vector<1xf32>
          %shuffleResult_924, %valid_925 = gpu.shuffle  xor %1431, %c8_i32, %c64_i32 : vector<1xf32>
          %1432 = arith.addf %1431, %shuffleResult_924 : vector<1xf32>
          %shuffleResult_926, %valid_927 = gpu.shuffle  xor %1432, %c16_i32, %c64_i32 : vector<1xf32>
          %1433 = arith.addf %1432, %shuffleResult_926 : vector<1xf32>
          %shuffleResult_928, %valid_929 = gpu.shuffle  xor %1433, %c32_i32, %c64_i32 : vector<1xf32>
          %1434 = arith.addf %1433, %shuffleResult_928 : vector<1xf32>
          %1435 = arith.addf %1434, %678 : vector<1xf32>
          %1436 = arith.extf %330 : f16 to f32
          %1437 = arith.mulf %1436, %686 : f32
          %1438 = vector.splat %1437 : vector<1xf32>
          %shuffleResult_930, %valid_931 = gpu.shuffle  xor %1438, %c1_i32, %c64_i32 : vector<1xf32>
          %1439 = arith.addf %1438, %shuffleResult_930 : vector<1xf32>
          %shuffleResult_932, %valid_933 = gpu.shuffle  xor %1439, %c2_i32, %c64_i32 : vector<1xf32>
          %1440 = arith.addf %1439, %shuffleResult_932 : vector<1xf32>
          %shuffleResult_934, %valid_935 = gpu.shuffle  xor %1440, %c4_i32, %c64_i32 : vector<1xf32>
          %1441 = arith.addf %1440, %shuffleResult_934 : vector<1xf32>
          %shuffleResult_936, %valid_937 = gpu.shuffle  xor %1441, %c8_i32, %c64_i32 : vector<1xf32>
          %1442 = arith.addf %1441, %shuffleResult_936 : vector<1xf32>
          %shuffleResult_938, %valid_939 = gpu.shuffle  xor %1442, %c16_i32, %c64_i32 : vector<1xf32>
          %1443 = arith.addf %1442, %shuffleResult_938 : vector<1xf32>
          %shuffleResult_940, %valid_941 = gpu.shuffle  xor %1443, %c32_i32, %c64_i32 : vector<1xf32>
          %1444 = arith.addf %1443, %shuffleResult_940 : vector<1xf32>
          %1445 = arith.addf %1444, %679 : vector<1xf32>
          %1446 = arith.extf %331 : f16 to f32
          %1447 = arith.mulf %1446, %686 : f32
          %1448 = vector.splat %1447 : vector<1xf32>
          %shuffleResult_942, %valid_943 = gpu.shuffle  xor %1448, %c1_i32, %c64_i32 : vector<1xf32>
          %1449 = arith.addf %1448, %shuffleResult_942 : vector<1xf32>
          %shuffleResult_944, %valid_945 = gpu.shuffle  xor %1449, %c2_i32, %c64_i32 : vector<1xf32>
          %1450 = arith.addf %1449, %shuffleResult_944 : vector<1xf32>
          %shuffleResult_946, %valid_947 = gpu.shuffle  xor %1450, %c4_i32, %c64_i32 : vector<1xf32>
          %1451 = arith.addf %1450, %shuffleResult_946 : vector<1xf32>
          %shuffleResult_948, %valid_949 = gpu.shuffle  xor %1451, %c8_i32, %c64_i32 : vector<1xf32>
          %1452 = arith.addf %1451, %shuffleResult_948 : vector<1xf32>
          %shuffleResult_950, %valid_951 = gpu.shuffle  xor %1452, %c16_i32, %c64_i32 : vector<1xf32>
          %1453 = arith.addf %1452, %shuffleResult_950 : vector<1xf32>
          %shuffleResult_952, %valid_953 = gpu.shuffle  xor %1453, %c32_i32, %c64_i32 : vector<1xf32>
          %1454 = arith.addf %1453, %shuffleResult_952 : vector<1xf32>
          %1455 = arith.addf %1454, %680 : vector<1xf32>
          %1456 = arith.extf %332 : f16 to f32
          %1457 = arith.mulf %1456, %686 : f32
          %1458 = vector.splat %1457 : vector<1xf32>
          %shuffleResult_954, %valid_955 = gpu.shuffle  xor %1458, %c1_i32, %c64_i32 : vector<1xf32>
          %1459 = arith.addf %1458, %shuffleResult_954 : vector<1xf32>
          %shuffleResult_956, %valid_957 = gpu.shuffle  xor %1459, %c2_i32, %c64_i32 : vector<1xf32>
          %1460 = arith.addf %1459, %shuffleResult_956 : vector<1xf32>
          %shuffleResult_958, %valid_959 = gpu.shuffle  xor %1460, %c4_i32, %c64_i32 : vector<1xf32>
          %1461 = arith.addf %1460, %shuffleResult_958 : vector<1xf32>
          %shuffleResult_960, %valid_961 = gpu.shuffle  xor %1461, %c8_i32, %c64_i32 : vector<1xf32>
          %1462 = arith.addf %1461, %shuffleResult_960 : vector<1xf32>
          %shuffleResult_962, %valid_963 = gpu.shuffle  xor %1462, %c16_i32, %c64_i32 : vector<1xf32>
          %1463 = arith.addf %1462, %shuffleResult_962 : vector<1xf32>
          %shuffleResult_964, %valid_965 = gpu.shuffle  xor %1463, %c32_i32, %c64_i32 : vector<1xf32>
          %1464 = arith.addf %1463, %shuffleResult_964 : vector<1xf32>
          %1465 = arith.addf %1464, %681 : vector<1xf32>
          %1466 = arith.extf %333 : f16 to f32
          %1467 = arith.mulf %1466, %686 : f32
          %1468 = vector.splat %1467 : vector<1xf32>
          %shuffleResult_966, %valid_967 = gpu.shuffle  xor %1468, %c1_i32, %c64_i32 : vector<1xf32>
          %1469 = arith.addf %1468, %shuffleResult_966 : vector<1xf32>
          %shuffleResult_968, %valid_969 = gpu.shuffle  xor %1469, %c2_i32, %c64_i32 : vector<1xf32>
          %1470 = arith.addf %1469, %shuffleResult_968 : vector<1xf32>
          %shuffleResult_970, %valid_971 = gpu.shuffle  xor %1470, %c4_i32, %c64_i32 : vector<1xf32>
          %1471 = arith.addf %1470, %shuffleResult_970 : vector<1xf32>
          %shuffleResult_972, %valid_973 = gpu.shuffle  xor %1471, %c8_i32, %c64_i32 : vector<1xf32>
          %1472 = arith.addf %1471, %shuffleResult_972 : vector<1xf32>
          %shuffleResult_974, %valid_975 = gpu.shuffle  xor %1472, %c16_i32, %c64_i32 : vector<1xf32>
          %1473 = arith.addf %1472, %shuffleResult_974 : vector<1xf32>
          %shuffleResult_976, %valid_977 = gpu.shuffle  xor %1473, %c32_i32, %c64_i32 : vector<1xf32>
          %1474 = arith.addf %1473, %shuffleResult_976 : vector<1xf32>
          %1475 = arith.addf %1474, %682 : vector<1xf32>
          %1476 = arith.extf %334 : f16 to f32
          %1477 = arith.mulf %1476, %686 : f32
          %1478 = vector.splat %1477 : vector<1xf32>
          %shuffleResult_978, %valid_979 = gpu.shuffle  xor %1478, %c1_i32, %c64_i32 : vector<1xf32>
          %1479 = arith.addf %1478, %shuffleResult_978 : vector<1xf32>
          %shuffleResult_980, %valid_981 = gpu.shuffle  xor %1479, %c2_i32, %c64_i32 : vector<1xf32>
          %1480 = arith.addf %1479, %shuffleResult_980 : vector<1xf32>
          %shuffleResult_982, %valid_983 = gpu.shuffle  xor %1480, %c4_i32, %c64_i32 : vector<1xf32>
          %1481 = arith.addf %1480, %shuffleResult_982 : vector<1xf32>
          %shuffleResult_984, %valid_985 = gpu.shuffle  xor %1481, %c8_i32, %c64_i32 : vector<1xf32>
          %1482 = arith.addf %1481, %shuffleResult_984 : vector<1xf32>
          %shuffleResult_986, %valid_987 = gpu.shuffle  xor %1482, %c16_i32, %c64_i32 : vector<1xf32>
          %1483 = arith.addf %1482, %shuffleResult_986 : vector<1xf32>
          %shuffleResult_988, %valid_989 = gpu.shuffle  xor %1483, %c32_i32, %c64_i32 : vector<1xf32>
          %1484 = arith.addf %1483, %shuffleResult_988 : vector<1xf32>
          %1485 = arith.addf %1484, %683 : vector<1xf32>
          scf.yield %588, %602, %695, %705, %715, %725, %735, %745, %755, %765, %775, %785, %795, %805, %815, %825, %835, %845, %855, %865, %875, %885, %895, %905, %915, %925, %935, %945, %955, %965, %975, %985, %995, %1005, %1015, %1025, %1035, %1045, %1055, %1065, %1075, %1085, %1095, %1105, %1115, %1125, %1135, %1145, %1155, %1165, %1175, %1185, %1195, %1205, %1215, %1225, %1235, %1245, %1255, %1265, %1275, %1285, %1295, %1305, %1315, %1325, %1335, %1345, %1355, %1365, %1375, %1385, %1395, %1405, %1415, %1425, %1435, %1445, %1455, %1465, %1475, %1485 : vector<1xf32>, vector<1xf32>, vector<1xf32>, vector<1xf32>, vector<1xf32>, vector<1xf32>, vector<1xf32>, vector<1xf32>, vector<1xf32>, vector<1xf32>, vector<1xf32>, vector<1xf32>, vector<1xf32>, vector<1xf32>, vector<1xf32>, vector<1xf32>, vector<1xf32>, vector<1xf32>, vector<1xf32>, vector<1xf32>, vector<1xf32>, vector<1xf32>, vector<1xf32>, vector<1xf32>, vector<1xf32>, vector<1xf32>, vector<1xf32>, vector<1xf32>, vector<1xf32>, vector<1xf32>, vector<1xf32>, vector<1xf32>, vector<1xf32>, vector<1xf32>, vector<1xf32>, vector<1xf32>, vector<1xf32>, vector<1xf32>, vector<1xf32>, vector<1xf32>, vector<1xf32>, vector<1xf32>, vector<1xf32>, vector<1xf32>, vector<1xf32>, vector<1xf32>, vector<1xf32>, vector<1xf32>, vector<1xf32>, vector<1xf32>, vector<1xf32>, vector<1xf32>, vector<1xf32>, vector<1xf32>, vector<1xf32>, vector<1xf32>, vector<1xf32>, vector<1xf32>, vector<1xf32>, vector<1xf32>, vector<1xf32>, vector<1xf32>, vector<1xf32>, vector<1xf32>, vector<1xf32>, vector<1xf32>, vector<1xf32>, vector<1xf32>, vector<1xf32>, vector<1xf32>, vector<1xf32>, vector<1xf32>, vector<1xf32>, vector<1xf32>, vector<1xf32>, vector<1xf32>, vector<1xf32>, vector<1xf32>, vector<1xf32>, vector<1xf32>, vector<1xf32>, vector<1xf32>
        }
        %88 = arith.cmpi sgt, %23, %c0 : index
        scf.if %88 {
          %89 = stream.binding.subspan %arg6[%c0] : !stream.binding -> memref<8x?x128xf32, strided<[?, 128, 1], offset: ?>>{%arg9}
          %90 = stream.binding.subspan %arg5[%c0] : !stream.binding -> memref<8x?x128x80xf32, strided<[?, 10240, 80, 1], offset: ?>>{%arg9}
          %91 = arith.divf %cst_3, %87#1 : vector<1xf32>
          %92 = arith.mulf %87#2, %91 : vector<1xf32>
          %93 = arith.mulf %87#3, %91 : vector<1xf32>
          %94 = arith.mulf %87#4, %91 : vector<1xf32>
          %95 = arith.mulf %87#5, %91 : vector<1xf32>
          %96 = arith.mulf %87#6, %91 : vector<1xf32>
          %97 = arith.mulf %87#7, %91 : vector<1xf32>
          %98 = arith.mulf %87#8, %91 : vector<1xf32>
          %99 = arith.mulf %87#9, %91 : vector<1xf32>
          %100 = arith.mulf %87#10, %91 : vector<1xf32>
          %101 = arith.mulf %87#11, %91 : vector<1xf32>
          %102 = arith.mulf %87#12, %91 : vector<1xf32>
          %103 = arith.mulf %87#13, %91 : vector<1xf32>
          %104 = arith.mulf %87#14, %91 : vector<1xf32>
          %105 = arith.mulf %87#15, %91 : vector<1xf32>
          %106 = arith.mulf %87#16, %91 : vector<1xf32>
          %107 = arith.mulf %87#17, %91 : vector<1xf32>
          %108 = arith.mulf %87#18, %91 : vector<1xf32>
          %109 = arith.mulf %87#19, %91 : vector<1xf32>
          %110 = arith.mulf %87#20, %91 : vector<1xf32>
          %111 = arith.mulf %87#21, %91 : vector<1xf32>
          %112 = arith.mulf %87#22, %91 : vector<1xf32>
          %113 = arith.mulf %87#23, %91 : vector<1xf32>
          %114 = arith.mulf %87#24, %91 : vector<1xf32>
          %115 = arith.mulf %87#25, %91 : vector<1xf32>
          %116 = arith.mulf %87#26, %91 : vector<1xf32>
          %117 = arith.mulf %87#27, %91 : vector<1xf32>
          %118 = arith.mulf %87#28, %91 : vector<1xf32>
          %119 = arith.mulf %87#29, %91 : vector<1xf32>
          %120 = arith.mulf %87#30, %91 : vector<1xf32>
          %121 = arith.mulf %87#31, %91 : vector<1xf32>
          %122 = arith.mulf %87#32, %91 : vector<1xf32>
          %123 = arith.mulf %87#33, %91 : vector<1xf32>
          %124 = arith.mulf %87#34, %91 : vector<1xf32>
          %125 = arith.mulf %87#35, %91 : vector<1xf32>
          %126 = arith.mulf %87#36, %91 : vector<1xf32>
          %127 = arith.mulf %87#37, %91 : vector<1xf32>
          %128 = arith.mulf %87#38, %91 : vector<1xf32>
          %129 = arith.mulf %87#39, %91 : vector<1xf32>
          %130 = arith.mulf %87#40, %91 : vector<1xf32>
          %131 = arith.mulf %87#41, %91 : vector<1xf32>
          %132 = arith.mulf %87#42, %91 : vector<1xf32>
          %133 = arith.mulf %87#43, %91 : vector<1xf32>
          %134 = arith.mulf %87#44, %91 : vector<1xf32>
          %135 = arith.mulf %87#45, %91 : vector<1xf32>
          %136 = arith.mulf %87#46, %91 : vector<1xf32>
          %137 = arith.mulf %87#47, %91 : vector<1xf32>
          %138 = arith.mulf %87#48, %91 : vector<1xf32>
          %139 = arith.mulf %87#49, %91 : vector<1xf32>
          %140 = arith.mulf %87#50, %91 : vector<1xf32>
          %141 = arith.mulf %87#51, %91 : vector<1xf32>
          %142 = arith.mulf %87#52, %91 : vector<1xf32>
          %143 = arith.mulf %87#53, %91 : vector<1xf32>
          %144 = arith.mulf %87#54, %91 : vector<1xf32>
          %145 = arith.mulf %87#55, %91 : vector<1xf32>
          %146 = arith.mulf %87#56, %91 : vector<1xf32>
          %147 = arith.mulf %87#57, %91 : vector<1xf32>
          %148 = arith.mulf %87#58, %91 : vector<1xf32>
          %149 = arith.mulf %87#59, %91 : vector<1xf32>
          %150 = arith.mulf %87#60, %91 : vector<1xf32>
          %151 = arith.mulf %87#61, %91 : vector<1xf32>
          %152 = arith.mulf %87#62, %91 : vector<1xf32>
          %153 = arith.mulf %87#63, %91 : vector<1xf32>
          %154 = arith.mulf %87#64, %91 : vector<1xf32>
          %155 = arith.mulf %87#65, %91 : vector<1xf32>
          %156 = arith.mulf %87#66, %91 : vector<1xf32>
          %157 = arith.mulf %87#67, %91 : vector<1xf32>
          %158 = arith.mulf %87#68, %91 : vector<1xf32>
          %159 = arith.mulf %87#69, %91 : vector<1xf32>
          %160 = arith.mulf %87#70, %91 : vector<1xf32>
          %161 = arith.mulf %87#71, %91 : vector<1xf32>
          %162 = arith.mulf %87#72, %91 : vector<1xf32>
          %163 = arith.mulf %87#73, %91 : vector<1xf32>
          %164 = arith.mulf %87#74, %91 : vector<1xf32>
          %165 = arith.mulf %87#75, %91 : vector<1xf32>
          %166 = arith.mulf %87#76, %91 : vector<1xf32>
          %167 = arith.mulf %87#77, %91 : vector<1xf32>
          %168 = arith.mulf %87#78, %91 : vector<1xf32>
          %169 = arith.mulf %87#79, %91 : vector<1xf32>
          %170 = arith.mulf %87#80, %91 : vector<1xf32>
          %171 = arith.mulf %87#81, %91 : vector<1xf32>
          %172 = math.log2 %87#1 : vector<1xf32>
          %173 = arith.addf %87#0, %172 : vector<1xf32>
          vector.store %173, %89[%block_id_z, %block_id_x, %block_id_y] : memref<8x?x128xf32, strided<[?, 128, 1], offset: ?>>, vector<1xf32>
          vector.store %92, %90[%block_id_z, %block_id_x, %block_id_y, %c0] : memref<8x?x128x80xf32, strided<[?, 10240, 80, 1], offset: ?>>, vector<1xf32>
          vector.store %93, %90[%block_id_z, %block_id_x, %block_id_y, %c1] : memref<8x?x128x80xf32, strided<[?, 10240, 80, 1], offset: ?>>, vector<1xf32>
          vector.store %94, %90[%block_id_z, %block_id_x, %block_id_y, %c2] : memref<8x?x128x80xf32, strided<[?, 10240, 80, 1], offset: ?>>, vector<1xf32>
          vector.store %95, %90[%block_id_z, %block_id_x, %block_id_y, %c3] : memref<8x?x128x80xf32, strided<[?, 10240, 80, 1], offset: ?>>, vector<1xf32>
          vector.store %96, %90[%block_id_z, %block_id_x, %block_id_y, %c4] : memref<8x?x128x80xf32, strided<[?, 10240, 80, 1], offset: ?>>, vector<1xf32>
          vector.store %97, %90[%block_id_z, %block_id_x, %block_id_y, %c5] : memref<8x?x128x80xf32, strided<[?, 10240, 80, 1], offset: ?>>, vector<1xf32>
          vector.store %98, %90[%block_id_z, %block_id_x, %block_id_y, %c6] : memref<8x?x128x80xf32, strided<[?, 10240, 80, 1], offset: ?>>, vector<1xf32>
          vector.store %99, %90[%block_id_z, %block_id_x, %block_id_y, %c7] : memref<8x?x128x80xf32, strided<[?, 10240, 80, 1], offset: ?>>, vector<1xf32>
          vector.store %100, %90[%block_id_z, %block_id_x, %block_id_y, %c8] : memref<8x?x128x80xf32, strided<[?, 10240, 80, 1], offset: ?>>, vector<1xf32>
          vector.store %101, %90[%block_id_z, %block_id_x, %block_id_y, %c9] : memref<8x?x128x80xf32, strided<[?, 10240, 80, 1], offset: ?>>, vector<1xf32>
          vector.store %102, %90[%block_id_z, %block_id_x, %block_id_y, %c10] : memref<8x?x128x80xf32, strided<[?, 10240, 80, 1], offset: ?>>, vector<1xf32>
          vector.store %103, %90[%block_id_z, %block_id_x, %block_id_y, %c11] : memref<8x?x128x80xf32, strided<[?, 10240, 80, 1], offset: ?>>, vector<1xf32>
          vector.store %104, %90[%block_id_z, %block_id_x, %block_id_y, %c12] : memref<8x?x128x80xf32, strided<[?, 10240, 80, 1], offset: ?>>, vector<1xf32>
          vector.store %105, %90[%block_id_z, %block_id_x, %block_id_y, %c13] : memref<8x?x128x80xf32, strided<[?, 10240, 80, 1], offset: ?>>, vector<1xf32>
          vector.store %106, %90[%block_id_z, %block_id_x, %block_id_y, %c14] : memref<8x?x128x80xf32, strided<[?, 10240, 80, 1], offset: ?>>, vector<1xf32>
          vector.store %107, %90[%block_id_z, %block_id_x, %block_id_y, %c15] : memref<8x?x128x80xf32, strided<[?, 10240, 80, 1], offset: ?>>, vector<1xf32>
          vector.store %108, %90[%block_id_z, %block_id_x, %block_id_y, %c16] : memref<8x?x128x80xf32, strided<[?, 10240, 80, 1], offset: ?>>, vector<1xf32>
          vector.store %109, %90[%block_id_z, %block_id_x, %block_id_y, %c17] : memref<8x?x128x80xf32, strided<[?, 10240, 80, 1], offset: ?>>, vector<1xf32>
          vector.store %110, %90[%block_id_z, %block_id_x, %block_id_y, %c18] : memref<8x?x128x80xf32, strided<[?, 10240, 80, 1], offset: ?>>, vector<1xf32>
          vector.store %111, %90[%block_id_z, %block_id_x, %block_id_y, %c19] : memref<8x?x128x80xf32, strided<[?, 10240, 80, 1], offset: ?>>, vector<1xf32>
          vector.store %112, %90[%block_id_z, %block_id_x, %block_id_y, %c20] : memref<8x?x128x80xf32, strided<[?, 10240, 80, 1], offset: ?>>, vector<1xf32>
          vector.store %113, %90[%block_id_z, %block_id_x, %block_id_y, %c21] : memref<8x?x128x80xf32, strided<[?, 10240, 80, 1], offset: ?>>, vector<1xf32>
          vector.store %114, %90[%block_id_z, %block_id_x, %block_id_y, %c22] : memref<8x?x128x80xf32, strided<[?, 10240, 80, 1], offset: ?>>, vector<1xf32>
          vector.store %115, %90[%block_id_z, %block_id_x, %block_id_y, %c23] : memref<8x?x128x80xf32, strided<[?, 10240, 80, 1], offset: ?>>, vector<1xf32>
          vector.store %116, %90[%block_id_z, %block_id_x, %block_id_y, %c24] : memref<8x?x128x80xf32, strided<[?, 10240, 80, 1], offset: ?>>, vector<1xf32>
          vector.store %117, %90[%block_id_z, %block_id_x, %block_id_y, %c25] : memref<8x?x128x80xf32, strided<[?, 10240, 80, 1], offset: ?>>, vector<1xf32>
          vector.store %118, %90[%block_id_z, %block_id_x, %block_id_y, %c26] : memref<8x?x128x80xf32, strided<[?, 10240, 80, 1], offset: ?>>, vector<1xf32>
          vector.store %119, %90[%block_id_z, %block_id_x, %block_id_y, %c27] : memref<8x?x128x80xf32, strided<[?, 10240, 80, 1], offset: ?>>, vector<1xf32>
          vector.store %120, %90[%block_id_z, %block_id_x, %block_id_y, %c28] : memref<8x?x128x80xf32, strided<[?, 10240, 80, 1], offset: ?>>, vector<1xf32>
          vector.store %121, %90[%block_id_z, %block_id_x, %block_id_y, %c29] : memref<8x?x128x80xf32, strided<[?, 10240, 80, 1], offset: ?>>, vector<1xf32>
          vector.store %122, %90[%block_id_z, %block_id_x, %block_id_y, %c30] : memref<8x?x128x80xf32, strided<[?, 10240, 80, 1], offset: ?>>, vector<1xf32>
          vector.store %123, %90[%block_id_z, %block_id_x, %block_id_y, %c31] : memref<8x?x128x80xf32, strided<[?, 10240, 80, 1], offset: ?>>, vector<1xf32>
          vector.store %124, %90[%block_id_z, %block_id_x, %block_id_y, %c32] : memref<8x?x128x80xf32, strided<[?, 10240, 80, 1], offset: ?>>, vector<1xf32>
          vector.store %125, %90[%block_id_z, %block_id_x, %block_id_y, %c33] : memref<8x?x128x80xf32, strided<[?, 10240, 80, 1], offset: ?>>, vector<1xf32>
          vector.store %126, %90[%block_id_z, %block_id_x, %block_id_y, %c34] : memref<8x?x128x80xf32, strided<[?, 10240, 80, 1], offset: ?>>, vector<1xf32>
          vector.store %127, %90[%block_id_z, %block_id_x, %block_id_y, %c35] : memref<8x?x128x80xf32, strided<[?, 10240, 80, 1], offset: ?>>, vector<1xf32>
          vector.store %128, %90[%block_id_z, %block_id_x, %block_id_y, %c36] : memref<8x?x128x80xf32, strided<[?, 10240, 80, 1], offset: ?>>, vector<1xf32>
          vector.store %129, %90[%block_id_z, %block_id_x, %block_id_y, %c37] : memref<8x?x128x80xf32, strided<[?, 10240, 80, 1], offset: ?>>, vector<1xf32>
          vector.store %130, %90[%block_id_z, %block_id_x, %block_id_y, %c38] : memref<8x?x128x80xf32, strided<[?, 10240, 80, 1], offset: ?>>, vector<1xf32>
          vector.store %131, %90[%block_id_z, %block_id_x, %block_id_y, %c39] : memref<8x?x128x80xf32, strided<[?, 10240, 80, 1], offset: ?>>, vector<1xf32>
          vector.store %132, %90[%block_id_z, %block_id_x, %block_id_y, %c40] : memref<8x?x128x80xf32, strided<[?, 10240, 80, 1], offset: ?>>, vector<1xf32>
          vector.store %133, %90[%block_id_z, %block_id_x, %block_id_y, %c41] : memref<8x?x128x80xf32, strided<[?, 10240, 80, 1], offset: ?>>, vector<1xf32>
          vector.store %134, %90[%block_id_z, %block_id_x, %block_id_y, %c42] : memref<8x?x128x80xf32, strided<[?, 10240, 80, 1], offset: ?>>, vector<1xf32>
          vector.store %135, %90[%block_id_z, %block_id_x, %block_id_y, %c43] : memref<8x?x128x80xf32, strided<[?, 10240, 80, 1], offset: ?>>, vector<1xf32>
          vector.store %136, %90[%block_id_z, %block_id_x, %block_id_y, %c44] : memref<8x?x128x80xf32, strided<[?, 10240, 80, 1], offset: ?>>, vector<1xf32>
          vector.store %137, %90[%block_id_z, %block_id_x, %block_id_y, %c45] : memref<8x?x128x80xf32, strided<[?, 10240, 80, 1], offset: ?>>, vector<1xf32>
          vector.store %138, %90[%block_id_z, %block_id_x, %block_id_y, %c46] : memref<8x?x128x80xf32, strided<[?, 10240, 80, 1], offset: ?>>, vector<1xf32>
          vector.store %139, %90[%block_id_z, %block_id_x, %block_id_y, %c47] : memref<8x?x128x80xf32, strided<[?, 10240, 80, 1], offset: ?>>, vector<1xf32>
          vector.store %140, %90[%block_id_z, %block_id_x, %block_id_y, %c48] : memref<8x?x128x80xf32, strided<[?, 10240, 80, 1], offset: ?>>, vector<1xf32>
          vector.store %141, %90[%block_id_z, %block_id_x, %block_id_y, %c49] : memref<8x?x128x80xf32, strided<[?, 10240, 80, 1], offset: ?>>, vector<1xf32>
          vector.store %142, %90[%block_id_z, %block_id_x, %block_id_y, %c50] : memref<8x?x128x80xf32, strided<[?, 10240, 80, 1], offset: ?>>, vector<1xf32>
          vector.store %143, %90[%block_id_z, %block_id_x, %block_id_y, %c51] : memref<8x?x128x80xf32, strided<[?, 10240, 80, 1], offset: ?>>, vector<1xf32>
          vector.store %144, %90[%block_id_z, %block_id_x, %block_id_y, %c52] : memref<8x?x128x80xf32, strided<[?, 10240, 80, 1], offset: ?>>, vector<1xf32>
          vector.store %145, %90[%block_id_z, %block_id_x, %block_id_y, %c53] : memref<8x?x128x80xf32, strided<[?, 10240, 80, 1], offset: ?>>, vector<1xf32>
          vector.store %146, %90[%block_id_z, %block_id_x, %block_id_y, %c54] : memref<8x?x128x80xf32, strided<[?, 10240, 80, 1], offset: ?>>, vector<1xf32>
          vector.store %147, %90[%block_id_z, %block_id_x, %block_id_y, %c55] : memref<8x?x128x80xf32, strided<[?, 10240, 80, 1], offset: ?>>, vector<1xf32>
          vector.store %148, %90[%block_id_z, %block_id_x, %block_id_y, %c56] : memref<8x?x128x80xf32, strided<[?, 10240, 80, 1], offset: ?>>, vector<1xf32>
          vector.store %149, %90[%block_id_z, %block_id_x, %block_id_y, %c57] : memref<8x?x128x80xf32, strided<[?, 10240, 80, 1], offset: ?>>, vector<1xf32>
          vector.store %150, %90[%block_id_z, %block_id_x, %block_id_y, %c58] : memref<8x?x128x80xf32, strided<[?, 10240, 80, 1], offset: ?>>, vector<1xf32>
          vector.store %151, %90[%block_id_z, %block_id_x, %block_id_y, %c59] : memref<8x?x128x80xf32, strided<[?, 10240, 80, 1], offset: ?>>, vector<1xf32>
          vector.store %152, %90[%block_id_z, %block_id_x, %block_id_y, %c60] : memref<8x?x128x80xf32, strided<[?, 10240, 80, 1], offset: ?>>, vector<1xf32>
          vector.store %153, %90[%block_id_z, %block_id_x, %block_id_y, %c61] : memref<8x?x128x80xf32, strided<[?, 10240, 80, 1], offset: ?>>, vector<1xf32>
          vector.store %154, %90[%block_id_z, %block_id_x, %block_id_y, %c62] : memref<8x?x128x80xf32, strided<[?, 10240, 80, 1], offset: ?>>, vector<1xf32>
          vector.store %155, %90[%block_id_z, %block_id_x, %block_id_y, %c63] : memref<8x?x128x80xf32, strided<[?, 10240, 80, 1], offset: ?>>, vector<1xf32>
          vector.store %156, %90[%block_id_z, %block_id_x, %block_id_y, %c64] : memref<8x?x128x80xf32, strided<[?, 10240, 80, 1], offset: ?>>, vector<1xf32>
          vector.store %157, %90[%block_id_z, %block_id_x, %block_id_y, %c65] : memref<8x?x128x80xf32, strided<[?, 10240, 80, 1], offset: ?>>, vector<1xf32>
          vector.store %158, %90[%block_id_z, %block_id_x, %block_id_y, %c66] : memref<8x?x128x80xf32, strided<[?, 10240, 80, 1], offset: ?>>, vector<1xf32>
          vector.store %159, %90[%block_id_z, %block_id_x, %block_id_y, %c67] : memref<8x?x128x80xf32, strided<[?, 10240, 80, 1], offset: ?>>, vector<1xf32>
          vector.store %160, %90[%block_id_z, %block_id_x, %block_id_y, %c68] : memref<8x?x128x80xf32, strided<[?, 10240, 80, 1], offset: ?>>, vector<1xf32>
          vector.store %161, %90[%block_id_z, %block_id_x, %block_id_y, %c69] : memref<8x?x128x80xf32, strided<[?, 10240, 80, 1], offset: ?>>, vector<1xf32>
          vector.store %162, %90[%block_id_z, %block_id_x, %block_id_y, %c70] : memref<8x?x128x80xf32, strided<[?, 10240, 80, 1], offset: ?>>, vector<1xf32>
          vector.store %163, %90[%block_id_z, %block_id_x, %block_id_y, %c71] : memref<8x?x128x80xf32, strided<[?, 10240, 80, 1], offset: ?>>, vector<1xf32>
          vector.store %164, %90[%block_id_z, %block_id_x, %block_id_y, %c72] : memref<8x?x128x80xf32, strided<[?, 10240, 80, 1], offset: ?>>, vector<1xf32>
          vector.store %165, %90[%block_id_z, %block_id_x, %block_id_y, %c73] : memref<8x?x128x80xf32, strided<[?, 10240, 80, 1], offset: ?>>, vector<1xf32>
          vector.store %166, %90[%block_id_z, %block_id_x, %block_id_y, %c74] : memref<8x?x128x80xf32, strided<[?, 10240, 80, 1], offset: ?>>, vector<1xf32>
          vector.store %167, %90[%block_id_z, %block_id_x, %block_id_y, %c75] : memref<8x?x128x80xf32, strided<[?, 10240, 80, 1], offset: ?>>, vector<1xf32>
          vector.store %168, %90[%block_id_z, %block_id_x, %block_id_y, %c76] : memref<8x?x128x80xf32, strided<[?, 10240, 80, 1], offset: ?>>, vector<1xf32>
          vector.store %169, %90[%block_id_z, %block_id_x, %block_id_y, %c77] : memref<8x?x128x80xf32, strided<[?, 10240, 80, 1], offset: ?>>, vector<1xf32>
          vector.store %170, %90[%block_id_z, %block_id_x, %block_id_y, %c78] : memref<8x?x128x80xf32, strided<[?, 10240, 80, 1], offset: ?>>, vector<1xf32>
          vector.store %171, %90[%block_id_z, %block_id_x, %block_id_y, %c79] : memref<8x?x128x80xf32, strided<[?, 10240, 80, 1], offset: ?>>, vector<1xf32>
        }
        return
      }
    }
  }
  func.func @isolated_benchmark(%arg0: tensor<?x128x80xf16>, %arg1: tensor<?x128x80xf16>, %arg2: tensor<?x128x80xf16>, %arg3: tensor<?xi32>, %arg4: tensor<?xi32>, %arg5: tensor<8x?x128x80xf32>, %arg6: tensor<8x?x128xf32>, %arg7: index, %arg8: index, %arg9: index) -> (tensor<8x?x128x80xf32>, tensor<8x?x128xf32>) {
    %0:2 = flow.dispatch @phase_0::@phase_0[%arg7, %arg8, %arg9](%arg0, %arg1, %arg2, %arg3, %arg4, %arg5, %arg6, %arg7, %arg8, %arg9) : (tensor<?x128x80xf16>{%arg9}, tensor<?x128x80xf16>{%arg8}, tensor<?x128x80xf16>{%arg8}, tensor<?xi32>{%arg9}, tensor<?xi32>{%arg7}, tensor<8x?x128x80xf32>{%arg9}, tensor<8x?x128xf32>{%arg9}, index, index, index) -> (%arg5{%arg9}, %arg6{%arg9})
    return %0#0, %0#1 : tensor<8x?x128x80xf32>, tensor<8x?x128xf32>
  }
}
